experiments/oc/pretrained/singlequad_nn_checkpt.pth (torch, 77815 bytes, 7 tensors)

A f4 [10, 13]
00000000: 138f c23e c913 913e 5244 c73e 5b31 c8bc
00000010: 31f4 b1be 425f 223f b2fe 133f d231 e83e
00000020: 124d 26be 826d b53e e82d ed3d 2a2e 6c3e
00000030: 9178 6b3d 43e5 313e 76bb 1c3d a36f 943d
00000040: 0d5b 393e 1856 693f bc0e 1dbf 10e7 95bd
00000050: d0ce 3bbe b20a 203e fdb8 cb3d f1d0 8b3e
00000060: 05b4 a3bd aaa6 d2be 9545 afbe 26ef a2be
00000070: 3445 343e 4aa8 8fbe 2598 2a3f 013f c53b
00000080: 31ae 663e 4574 c8be 3411 1cbc a074 01be
00000090: f870 c6bd 35be 39bd 276e 2a3e 1f09 b1be
000000a0: df01 ae3e fe6a f9be 9ef2 d83e 833d 7d3f
000000b0: 581f afbf 0a2e 9dbe 0cc3 37be 5619 55be
000000c0: 4f98 85bc b3ad c0bd 3b72 f8be d22b 96be
000000d0: 5a77 2bbd 4265 babe 5e67 f43d c1e2 69bf
000000e0: e564 1bbe 105a 7d3f dcc7 52bd b3ac 5e3e
000000f0: 2f1e 4ebe 74b0 9ebe 5f09 763d 5bb1 e33e
00000100: d8bf 8bbe 4c05 cbbe 20d5 403e fa67 eabe
00000110: 8452 b7be 216f 38bf 8f34 5b3f 5170 b43e
00000120: 98a9 46be 98a3 0abf 97e5 1f3e dde0 d6be
00000130: 248e d73e 75f4 aebe f7ef c63e 6d11 023f
00000140: da68 c0be 586d 923f ee0c 2d3e fe4e 7fbf
00000150: f044 e73d bcb9 ff3e 5026 a1be c8bf 8a3e
00000160: 6805 073e 90d5 0dbf d9e6 833e efb9 c63d
00000170: 1c07 8ebe b5bd b1be 8c87 a33d 498a 32bd
00000180: e1eb 3e3e 8932 9b3e 8ff0 cf3d 37e5 0ebf
00000190: 5dd8 083c b8ae 61be 628d 23bd 94d5 a83e
000001a0: 670e 06bf 59f1 e5bd 4d03 d6be d6da d23e
000001b0: 115a a1be db43 3b3f b509 a0be 2eb6 47be
000001c0: 7c4a 3bbe e984 323e 3aea d4be 3246 ea3e
000001d0: 1a72 193f 5a96 6fbe 0ce2 dc3d ee45 993c
000001e0: f91d af3e 62f0 c5bf d96a 8b3f e2f6 913e
000001f0: 0502 0dbe cfc0 203e bba7 c53b a350 b6be
00000200: 516a e03d 09b2 2cbe
0.37999782 0.28335407 0.38919312 -0.024437597 -0.34756616 0.634266 0.5781051 0.4535051
-0.16240337 0.3543511 0.115810215 0.23064485 0.057488028 0.17372613 0.038264714 0.072478555
0.1810114 0.91146994 -0.6135061 -0.07319462 -0.18340611 0.1562908 0.09947393 0.27307847
-0.079933204 -0.4114278 -0.34232774 -0.3182308 0.17604524 -0.28058082 0.66638404 0.0060194735
0.22527386 -0.39151207 -0.009525586 -0.12642145 -0.09689516 -0.04534741 0.16643582 -0.3457727
0.33985803 -0.4871444 0.42372602 0.98921984 -1.368144 -0.30699188 -0.17945498 -0.20810446
-0.016307978 -0.094081305 -0.4852465 -0.29330307 -0.04186187 -0.3640538 0.11933778 -0.91361624
-0.15175207 0.9896555 -0.051460132 0.21745567 -0.20128702 -0.30993998 0.06006753 0.4447125
-0.27294803 -0.3965248 0.188313 -0.45782453 -0.35805142 -0.7204457 0.85627073 0.3524194
-0.19400632 -0.54155874 0.15614925 -0.41968432 0.42100632 -0.3417088 0.38854954 0.5080784
-0.37579995 1.1439619 0.16899464 -0.9972991 0.11292446 0.49946392 -0.31474543 0.27099442
0.13185656 -0.55403996 0.2576206 0.09703433 -0.277398 -0.34715047 0.07984838 -0.04358891
0.18644668 0.30311993 0.10153305 -0.55818504 0.008352366 -0.22039306 -0.039929755 0.32975447
-0.52365726 -0.11227674 -0.41799393 0.41182584 -0.31514028 0.73150414 -0.31257406 -0.1950309
-0.18290132 0.17433514 -0.4158495 0.4575668 0.5993973 -0.23397198 0.107853025 0.018710103
0.34202555 -1.5463984 1.0891982 0.2850867 -0.13770302 0.1569855 0.006031958 -0.35608396
0.10957778 -0.1686479

c.weight f4 [1, 13]
00000000: ff3e 2bc1 b602 35c1 1382 17c1 2349 32c0
00000010: 6fc5 fdbf 7363 1740 73c0 0fbf bcaa 6dbe
00000020: a74d f1bd 1ce5 debc 7775 8ebe 0d6b 903d
00000030: 0000 0000
-10.70288 -11.313162 -9.469256 -2.785714 -1.9825877 2.365445 -0.5615303 -0.23209661
-0.11782389 -0.027208857 -0.27823994 0.07051668 0.0

w.weight f4 [1, 128]
00000000: cacd 873f 89d2 ae3f 6b1e b73f 206f 853f
00000010: 3de6 c93f a960 a03f 7985 a83f 766d a73f
00000020: 848c 7b3f 2031 ab3f 1b75 a33f bb8e 9e3f
00000030: 2457 ad3f 646a a33f d962 a43f 91c5 963f
00000040: 1fdd 913f 7117 c03f ebcc 963f d292 ae3f
00000050: ba19 c43f c3bc 8f3f 02a9 af3f db35 aa3f
00000060: d19f 963f bea2 a53f b3a0 873f 96ca a13f
00000070: e418 963f 6a8d a73f 8c2e c53f f78d a33f
00000080: 8712 9f3f 5b8f ac3f a0f4 983f 5a05 a63f
00000090: d2a4 903f 22e3 a63f f878 9a3f a1bf 903f
000000a0: c4ec c23f c97a 9e3f 7558 973f 2bf5 873f
000000b0: db1b b73f 06a7 943f 737c 963f b858 b33f
000000c0: 4ac7 963f 3540 b93f 0ae7 933f 2db5 a73f
000000d0: ed6c 913f a541 c03f de01 c03f 587b a53f
000000e0: 0144 9f3f 0a08 9c3f 06b7 bd3f 3cc1 9d3f
000000f0: b939 af3f b083 b83f 591e 9f3f e328 9b3f
00000100: 65a4 9c3f 3f86 943f b954 aa3f cb80 a13f
00000110: 029f a33f 0058 7e3f 6e6c ac3f 233e a03f
00000120: 9f56 993f 86b8 943f 1dc2 8c3f 028e 953f
00000130: f0d6 963f 78ac bd3f 7f58 9c3f 492d aa3f
00000140: d0c4 af3f 0d6d af3f 4176 8f3f e9f1 ac3f
00000150: 983f 8d3f 375c 933f f985 b03f 0b2e 9c3f
00000160: 5dad 943f fde2 a43f b21c 993f 9b59 993f
00000170: edd2 7a3f be9d 933f 1004 a83f 4df7 a43f
00000180: 80f8 9d3f 9e1f c43f 6692 c23f 14e3 9b3f
00000190: 031e 9c3f e3f9 8c3f 2288 ac3f 82d4 a53f
000001a0: f69a 983f 0bf0 a23f 8514 b13f 3443 ab3f
000001b0: 588e 983f 12fa cc3f da11 9e3f 72db 943f
000001c0: 09e8 af3f 9312 a13f 818d a03f 65f6 993f
000001d0: d5a7 9b3f 8de2 a43f bfe0 873f 22c4 923f
000001e0: 4e28 ad3f acee a43f 239a 9e3f 4332 953f
000001f0: bc76 c13f 3d74 8f3f 8969 dd3f 5ff2 c53f
1.0609677 1.3658 1.4306158 1.0424538 1.5773388 1.2529498 1.3165733 1.308028
0.98261285 1.3374367 1.2770113 1.2387308 1.3542218 1.2766843 1.2842666 1.1779042
1.1395606 1.5007154 1.1781286 1.3638556 1.5320351 1.122948 1.3723452 1.3297685
1.1767522 1.294029 1.0595917 1.2639949 1.1726346 1.3090031 1.540483 1.2777699
1.2427529 1.3481249 1.1949654 1.2970383 1.1300299 1.3038065 1.2068167 1.130848
1.5228505 1.2381221 1.182387 1.0621694 1.4305376 1.1613472 1.1756729 1.401145
1.1779568 1.447272 1.1554883 1.3102165 1.1361367 1.5020033 1.500057 1.2928267
1.2442628 1.2189953 1.4821479 1.2324595 1.368949 1.4415188 1.2431136 1.2121853
1.2237669 1.1603469 1.3307105 1.261743 1.27829 0.9935303 1.347059 1.2518963
1.197956 1.1618812 1.0996739 1.1683962 1.1784344 1.4818258 1.2214507 1.329507
1.3731937 1.3705155 1.1207963 1.3511325 1.1035032 1.1512517 1.3790885 1.2201551
1.1615406 1.2881771 1.1961882 1.198047 0.979781 1.1532514 1.312624 1.288797
1.2341461 1.5322149 1.5200927 1.2178674 1.2196659 1.1013759 1.3479044 1.2955477
1.192229 1.2729505 1.3834387 1.3379884 1.191844 1.6013815 1.2349198 1.1629469
1.3742687 1.2583793 1.2543184 1.2028319 1.2160593 1.2881638 1.0615462 1.1466105
1.3527925 1.2885337 1.2390789 1.1655964 1.511436 1.1207348 1.7297832 1.5464591

N.layers.0.weight f4 [128, 13]
00000000: c31a a6be d3c6 92be 450e 0b3e aa9b 6fbf
00000010: 9632 5e3f 91f0 143f eaf9 e53d d472 88bb
00000020: 5628 cbbd 5fd3 12be be97 d63d a6fa 7e3e
00000030: 0fa9 293d 5ef6 183e e569 223e e71e 1c3c
00000040: bc21 e53f 10fc 30bd 9aac aabf e93b 3e3d
00000050: 2416 49bc c71b 99bd 2cbb 4a3e b05b 23bc
00000060: 84bd 49be c936 8dbd 2501 18bf 8522 ddbe
00000070: 18c0 a4be 95ee 8dbf e93f 8cbf ec39 843f
00000080: c632 69be 4ea6 babe 2332 203e 668d b7be
00000090: e5ca 42be fbc9 983d 9e80 a83e 248d de3e
000000a0: 3000 2b3f bb2b 4a3f 3a9c d93d 3463 503f
000000b0: b10e 2f3d 2f8b 3c3d c768 db3d 14b1 8cbe
000000c0: 5782 2abd 82ad 7abe acd5 de3c 2146 413f
000000d0: 2561 18be ae84 e7bd 40cb 15be f7f9 82bf
000000e0: 0169 763e 7dfc d33f 4dc7 a43e 2a8c b5be
000000f0: dd6e db3d 519c 813a 3c85 653d 9426 ee3e
00000100: 64de 033f 0bc5 b5bc f2c4 f13e b208 aebd
00000110: f602 e43f b783 3f3d e935 85bf 4865 773e
00000120: f414 2cbe 1dd4 21be 1d0d b73e 53c5 0abd
00000130: 1ead 78be 4267 a33c 2385 7dbd ec94 0abe
00000140: af57 cb3d 64d4 3abf c487 b1bf f00d 33bf
00000150: 274b a6bc 74d0 0b3e 596c 263e a25e 7fbe
00000160: db72 88be f9ba debe 4638 a1bd 8f06 853f
00000170: 6e6d d83e 6526 823e d03e 8e3f 0507 82bf
00000180: 5dda 053d e332 893e 32c6 59be 62dd 0fbc
00000190: 416f cc3e 1e34 45be 72f5 01be 2542 4dbf
000001a0: 829a 8dbe 10f7 a8be 053d dbbc 3e87 443f
000001b0: bf26 583f f558 3bbf 5df1 0a3e cdf5 fd3d
000001c0: 8d28 94be 6776 01bc 9ccb afbe a2eb 1b3e
000001d0: 88cf 55bf 41a8 c83e 783a fd3e ea4a ba3d
000001e0: e5c7 76bf aae8 67bf 6d8e a13f 793f 5b3e
000001f0: 050c 2ebe b033 ea3d 3211 98be 8fe0 313e
00000200: ee0f 1fbe bec4 d2be c14c 3a3e b67a 5e3e
00000210: 64c7 983e f0d2 9c3f 474c 51bf 8675 0a3f
00000220: 57d5 d5bd c268 333e e293 253e 2f90 913e
00000230: b110 913d 64d3 473e 85d1 17bd 9e5d 18bd
00000240: cdad 16be 8020 52be 67d8 a8bf e70a 883f
00000250: c7fb d73e b034 243d 1ff8 4dbe a579 04be
00000260: 234e 57be 208d 743d 8941 673d 7d37 583c
00000270: 634b 013f 812a 983d 40b5 a93e 1b31 a0be
00000280: 460d 11bf eae8 873f 4095 343c 6d01 1cbf
00000290: cf33 b4bd 9348 ad3e 6d39 3b3d 4206 e1be
000002a0: 5960 0f3f 167d 363f 3d80 3d3f db4c a4be
000002b0: cc3c f5bd 5fe4 89bf b65c 833f bf67 cb3c
000002c0: 61f9 c23e 2ca4 2bbd 7436 0bbc ceb3 54bc
000002d0: 2778 88bd 6b11 aebe 55c9 23bd 7a8b f3bd
000002e0: 78c7 0a3e 1144 063e e54a 87bf b914 da3e
000002f0: 1a19 ac3e f248 2dbe 9881 723e 4cf6 8d3e
00000300: 6b5f 85be b72b b93c 0177 7fbe 5ffc 28be
00000310: 554d 35be 43d9 fdbd 9cb0 293e 2e41 3d3f
00000320: 2bda fa3e acf5 963d 8f1e 95bd c438 bdbe
00000330: 0fe4 4d3e 7e27 843e 9412 603e 4cf7 a9bd
00000340: 15b9 26be 3ec0 173e f994 b6be 4b68 e73e
00000350: 7fe4 843f 9171 78bf 10d8 7c3c 66bf c6bd
00000360: c897 99bd 3bd9 153e ee6e 03bf 17a8 7c3e
00000370: 4855 04bf 24d0 463b bee6 1f3c a3d2 543e
00000380: 4178 26bf a04c 6abf 714a 113f 2f26 b23e
00000390: 65af 11be 395d 893c 4771 8a3b 0e94 263f
000003a0: 18bc 4abe 800a 9e3e d1f0 f6be 5dcc ddbe
000003b0: 31c4 f1be 9ea4 11bf 777e 903f e5b6 27bf
000003c0: 2f3a 47bd d501 a1be 562f 1fbe 8f2b 03be
000003d0: 4af3 f7bd 3550 7abc ed44 d73e 8ae0 90be
000003e0: 8314 b4be 4380 a9be 1a42 5bbf 0a3b 9dbf
000003f0: eb98 9b3f cd99 5cbe ee86 66be 00e9 813d
-0.32442293 -0.28667316 0.13579662 -0.935969 0.8679594 0.58179575 0.11229308 -0.004164079
-0.09919803 -0.14338444 0.10478161 0.24900302 0.041420992 0.14937732 0.15860708 0.009528852
1.790092 -0.043209136 -1.3333924 0.046443854 -0.012273345 -0.07476001 0.19797963 -0.0099705905
-0.197012 -0.06895215 -0.59376746 -0.431904 -0.32177806 -1.1088434 -1.0957004 1.0330176
-0.22773275 -0.36455005 0.15644126 -0.35850066 -0.1902271 0.074604 0.32910627 0.43467057
0.6679716 0.7897298 0.10625501 0.8140137 0.04273862 0.046031173 0.10713344 -0.2747885
-0.041628208 -0.2448025 0.027201496 0.75497633 -0.14880808 -0.113046035 -0.14628315 -1.0232533
0.24063493 1.6561428 0.32183304 -0.354585 0.10714505 0.0009888505 0.056035265 0.46513808
0.51511216 -0.022188684 0.4722057 -0.08497752 1.7813404 0.046756472 -1.0407077 0.2415973
-0.16804868 -0.15803571 0.35752192 -0.03387959 -0.24284789 0.019946698 -0.061894547 -0.13533372
0.09928834 -0.7298033 -1.3869557 -0.6994314 -0.020299507 0.13653737 0.16252269 -0.24938443
-0.26650128 -0.43502024 -0.078720614 1.0392627 0.42270988 0.25419918 1.1112919 -1.0158392
0.03267895 0.26796636 -0.21267012 -0.008780809 0.3992863 -0.19258162 -0.12691286 -0.80179054
-0.27656943 -0.33000994 -0.026762495 0.76768863 0.8443412 -0.7318261 0.13568635 0.124003984
-0.28937188 -0.0079017645 -0.3433503 0.15226606 -0.8351979 0.39190868 0.4945867 0.0909632
-0.96398765 -0.9058939 1.262159 0.21410932 -0.16996773 0.1143564 -0.2970062 0.17370819
-0.1553342 -0.41165727 0.18193342 0.21726498 0.29839623 1.2251873 -0.81757015 0.54085577
-0.10441082 0.1752043 0.16169694 0.28430316 0.07083262 0.19514233 -0.037065048 -0.037198655
-0.14714737 -0.2052021 -1.3191041 1.0628327 0.42184278 0.04008931 -0.20114182 -0.12937029
-0.210259 0.0597049 0.056458984 0.013196823 0.50505656 0.07429982 0.33146095 -0.31287464
-0.5666088 1.0617955 0.011021912 -0.60939676 -0.08798944 0.33844432 0.045709062 -0.43950087
0.5600639 0.71284616 0.740238 -0.32089886 -0.11974487 -1.0772818 1.0262668 0.024829743
0.38080886 -0.041904613 -0.008496869 -0.012982322 -0.06663542 -0.33997664 -0.039986927 -0.118918374
0.13552654 0.13111903 -1.0569731 0.42593935 0.336129 -0.16922358 0.23682249 0.27726972
-0.2604936 0.022603853 -0.2494774 -0.16502522 -0.17705281 -0.12394955 0.16571277 0.7392758
0.48994574 0.07371077 -0.07281219 -0.3695737 0.20106529 0.2581138 0.21882087 -0.08299121
-0.1628154 0.14819428 -0.35660532 0.45196757 1.0382231 -0.9704829 0.015432373 -0.09704475
-0.07499653 0.14633648 -0.5134114 0.24673496 -0.5169263 0.0030336464 0.009759603 0.20783477
-0.6502724 -0.9152317 0.56754214 0.34794757 -0.14227064 0.016768085 0.0042249295 0.65069664
-0.19798315 0.30867386 -0.48230603 -0.4331998 -0.47219995 -0.5689181 1.1288594 -0.6551345
-0.048639473 -0.3144671 -0.15545401 -0.12809585 -0.121069506 -0.015277912 0.42044774 -0.2829631
-0.351719 -0.33105668 -0.8564774 -1.2283642 1.2156042 -0.21543045 -0.22512409 0.06343269

N.layers.0.bias f4 [128]
00000000: 9854 0a3e 91f6 dcbe a609 533f f3f5 f93e
00000010: 6137 283e 3262 d63d 043a c8bd 93e6 4fbf
00000020: 2ac5 0ebf 7b0b 0cbf bbfe 0fbe fc4c d33e
00000030: f016 11be 9473 72bf 4c9b 2abe d82c 1a3c
00000040: c530 08bf 41a8 503f d41f 463f bdd2 7e3e
00000050: 7af4 15bf 43c8 e7bc d70c 983e 73f9 d23e
00000060: 5850 7bbf b041 2dbe 6c06 183f e929 36be
00000070: b5aa 1dbf 2649 9fbf e468 7b3b 1a7e 14be
00000080: c965 33bf c3af d1be 9806 113f bd2d 95bf
00000090: 4aa3 48be 3ab3 c83e 70b7 b73e 10ae c2be
000000a0: 9531 033f 5120 753d ca54 bb3e 1163 ffbe
000000b0: 1b56 9c3e 0b66 32be d3f9 4dbf d5d8 3e3f
000000c0: 461d 213e f48c 1a3e 397c 643f 00dd 923f
000000d0: 5f12 ddbe ffac 2c3e e3db a83c 1af0 c4be
000000e0: 6b85 4ebf 0bc0 ad3d 126b a43d 2cf8 84bd
000000f0: dfc4 b7be 01cb 8bbd 7f4e a83f 479c 8d3d
00000100: c266 913d a15c a63e 3ad2 d63e 7eec cfbd
00000110: 0437 90be ee74 99be eaca 803e 19da e4bd
00000120: a904 c93e 3a0b 86be 5c70 31bf 45c7 973f
00000130: bc72 ac3e cf46 923d 8e8e c73d 095a 24be
00000140: 5845 89be 7cde 03bf cc0a 08bf 3745 db3e
00000150: 5b1e 85bd 5a8d df3c 8b00 02bf be3d b1bd
00000160: c47a 203f db9e ed3e ee80 f9be ebb6 d1be
00000170: 2cd4 b73e 00a1 483d 773d 543e 2baf 653f
00000180: 7de3 cbbe 8e62 ebbe 8345 67be ba28 2e3e
00000190: 182e 703e 3389 9abe 5902 3c3f 66ea 103e
000001a0: 7e22 21be 2166 d73e 3502 38bd 3289 b03c
000001b0: f1c3 3bbe 7e57 a63f a63b eabe 7cef 883f
000001c0: dd18 1b3f 954c e6bd 7586 c83d 9f5d 34bf
000001d0: b401 1ebf d06b 853f 1a83 993e 1240 51bf
000001e0: 8196 d93e 39cc 32bf 734d 90bf 4f31 5f3c
000001f0: d000 993f cd8f b6be 684e 95be 5aed f6bd
0.13508832 -0.43156865 0.824366 0.48820457 0.16427375 0.10467948 -0.097766906 -0.81211203
-0.557696 -0.5470502 -0.14062016 0.41269672 -0.14168906 -0.9470761 -0.16660804 0.009410106
-0.53199416 0.81506735 0.77392316 0.24885078 -0.58576167 -0.028293734 0.29697296 0.4120594
-0.9816947 -0.16919589 0.593848 -0.17789425 -0.61588603 -1.2444198 0.003836208 -0.14501229
-0.70077187 -0.40954408 0.56650686 -1.1654583 -0.1959354 0.3919924 0.3588214 -0.38023424
0.5124753 0.059845272 0.36588126 -0.4988027 0.30534443 -0.17421739 -0.80459327 0.7454961
0.15733823 0.15092832 0.8925205 1.1473694 -0.4317808 0.16862868 0.020612663 -0.38464433
-0.8067233 0.08483895 0.080282345 -0.064926475 -0.35892388 -0.06825829 1.3148955 0.06914573
0.070996776 0.32492545 0.41957265 -0.10152529 -0.28166974 -0.29972023 0.2515481 -0.11174411
0.39261368 -0.2618044 -0.6931207 1.1857687 0.33681285 0.07142412 0.09743987 -0.1604997
-0.26810718 -0.5151136 -0.53141475 0.42826244 -0.064999305 0.027289081 -0.5078208 -0.086543545
0.62687325 0.4641026 -0.48731178 -0.40959868 0.35904062 0.048981667 0.20726572 0.8972041
-0.39821997 -0.4597363 -0.2258511 0.17007723 0.23455083 -0.301828 0.7344108 0.14151916
-0.15735814 0.42070106 -0.04492398 0.021549795 -0.18336464 1.299545 -0.45748633 1.0698085
0.60584813 -0.112450756 0.09791271 -0.70455354 -0.6172135 1.0423527 0.29982835 -0.8173839
0.42497638 -0.6984287 -1.1273636 0.013622596 1.1953373 -0.35656586 -0.29161382 -0.1205699

N.layers.1.weight f4 [128, 128]
00000000: add4 c23d c082 acbd 8975 14be 75cd 2b3e
00000010: 58ff ddbb 2cf8 20be 5cc7 39be 8752 2ebe
00000020: a149 cd3d c7ed 8cbd 2aca fd3c eb52 1cba
00000030: 756d 963d 9c9f 1dbe 522a a4bd f7ca e8bb
00000040: 5764 0f3e 4cd0 ff3d 2bc4 bfbd f4c2 c5bd
00000050: e6ac 3bbe 81ba 0a3e 4ec1 af3d 7a7e 3abd
00000060: b347 51be b6e0 85bd 5dd2 3b3e 7878 10be
00000070: c09e 4ebe 5f10 66be 453e c3bc ac34 82bd
00000080: 1169 97bd c971 b8bd 29b9 0fbd 39fc 23be
00000090: 6e1d b6bc 260c 05be 5d64 77be af59 283e
000000a0: ee35 22be d110 b43c d882 71be c839 553e
000000b0: da05 a3bc fb34 1cbb 3e39 0fbe aac1 ebbd
000000c0: 2755 74bd 0e1a b6bd a0c8 79be 28ce 7abe
000000d0: a8b7 67bd e1fc 8ebd 1e61 d2bd 9da8 7bbd
000000e0: f486 2abe acb8 b33c 5a9c d1bd 338a 113d
000000f0: 358b e7bd 09f5 d63c 6b21 cdbd 12fe 823e
00000100: 47f6 16be bb49 02bd ef52 07be 827b 0bbd
00000110: a271 47be c5ae db3d a9fd 9bbd dfef e5bd
00000120: ee54 d03c 9b10 edbd 5e57 28be 1ab0 7dbe
00000130: 567a 10bd 7bdd ee3d 092f 4ebe 7b1a 2c3e
00000140: e522 b9bd 3b7a 2d3b a45a 5cbb c7ac d63d
00000150: ec7c 40bd 4cd2 47be b035 debd ed1b e83c
00000160: ea1d 0abe e75f adbe 2e0f 92bd 0c7c 9ebd
00000170: bcc4 173e b851 823e 0018 b6bd 169d d7bd
00000180: 6f60 cf3d a797 1ebe fe31 a43b 7d3c b2bd
00000190: ebca f3bd 6506 01be f09f d6bd beb5 093d
000001a0: d7ec 8f3d cc84 a0bd 8da5 78bd 07e6 debc
000001b0: 5140 c0bd a26e a3be 806c 45bd 1c7d 80bd
000001c0: c100 3dbe 5f8e 80bd f4fd d9bd 8668 83bd
000001d0: 6501 3abd 5d43 75be f233 77bd ab75 4bbd
000001e0: 702d 76be 6de0 e6bd a711 63be 4e0c cebd
000001f0: 826a 9dbe 2180 2f3e eb1b 4c3e 0fec 12bc
00000200: f7fe 90bd 0f8f 9cbe 19ff 08be 623c 8a3e
00000210: 9f32 4d3d a274 59be 20c9 debd a8a8 37be
00000220: e8a9 973e 3b59 aabd 77a6 e93c 86b0 90bd
00000230: 0e28 843e 641c 2abe c4e3 cebd 3b34 29bd
00000240: 06d0 a93e 329e 563e 3e3b 06be 8678 973b
00000250: 63b6 0abe d62d 983e 1f7e 8d3e ce68 f4bd
00000260: 119e dfbd 7774 4ebe 6bc3 6e3e 64e8 86be
00000270: e0f8 efbd dba1 86be ae28 cbbd 249b acbd
00000280: 7513 703c a436 85bd 10e2 9bbd 0465 3fbe
00000290: 9700 0cbe b830 09be 42b9 c3bd 4576 f73d
000002a0: ffd3 e4bd c0d2 003e daa7 eebd 4b46 033e
000002b0: 563d 99bd cd6c b83b d906 0bbd 8b29 58be
000002c0: c386 05be 724a a4bd 2cc5 36be 91ed babd
000002d0: 40ac dabd 4589 20bc b180 b6bd 9f66 5cbe
000002e0: b554 1fbe ef0f 28bd 867c 11be 79c2 103c
000002f0: 948d 7abe 259b 6c3e 1237 c7bd 2ad2 d9bb
00000300: d2a8 35be c65e 95bc 90e4 dcbd 954b bdbd
00000310: ad45 d0bd 5cb0 4a3e 4630 91bd 5a57 83bd
00000320: 445f 0cbe 5502 d9bd edb8 9ebd 7fed bfbd
00000330: e6b8 80bc 26be 4b3d 34d0 9cbe 725d 4a3d
00000340: f7d0 fc3c 1504 033d d7cc 0abe 7a6c ff3d
00000350: b834 a13d b838 7cbd e642 23be 7f30 d4bd
00000360: 4756 ccbc 39a6 81be 3484 e1bd 7207 c83b
00000370: f89c 963e b3e8 853e c3af 1fbe 65f9 14be
00000380: 6f0e ac3d a2f5 95bd 9f82 7fbd 7be8 33bc
00000390: c54f 25bd 088a 5cbd f3d2 2abe 1c1f 17bc
000003a0: ca48 033e 9084 abbd a795 21bd 3496 fcbd
000003b0: 538c 55bd d9a6 b7be c201 4bbe 18c4 a2bd
000003c0: 888d 8abe 234c a3bc 2053 02be 3cf5 90bd
000003d0: ef51 29bd 4e60 a7bd a371 1ebe f746 3cbe
000003e0: 2d16 1abe d962 2ebe 07ff 7dbe c722 f0bd
000003f0: 3c03 aebe ad80 973e fc95 a93e 9659 13be
0.09513221 -0.08423376 -0.14497961 0.16777594 -0.006774824 -0.1571967 -0.18142456 -0.17023669
0.10023809 -0.0688129 0.030980188 -0.00059632835 0.07345096 -0.15392917 -0.080158845 -0.0071042734
0.1400312 0.12490901 -0.09363588 -0.09656325 -0.18327674 0.13547708 0.08581792 -0.045530774
-0.20437507 -0.06537001 0.18341966 -0.14108455 -0.20177746 -0.22467183 -0.023833403 -0.063577026
-0.07393087 -0.09006078 -0.03508869 -0.16014184 -0.02223083 -0.12992916 -0.2415938 0.16440462
-0.15840885 0.021980675 -0.23585069 0.20822823 -0.019900251 -0.002383529 -0.1398668 -0.11511548
-0.05965152 -0.08891688 -0.24392939 -0.24492705 -0.056571633 -0.069818266 -0.1027243 -0.0614401
-0.16653043 0.021938644 -0.102349 0.035532188 -0.113058485 0.026239889 -0.100161396 0.25584465
-0.14742385 -0.031808596 -0.1321523 -0.034053333 -0.19476941 0.10726694 -0.07616741 -0.112273924
0.025431123 -0.11575433 -0.16439578 -0.24774209 -0.03527292 0.11663338 -0.2013513 0.16806976
-0.09039859 0.002647056 -0.0033623362 0.104821734 -0.046994135 -0.19513816 -0.10850084 0.028333629
-0.13487974 -0.3386223 -0.071318015 -0.07738504 0.14821142 0.2545297 -0.088912964 -0.10528009
0.10125815 -0.15487538 0.0050108423 -0.087029435 -0.11903938 -0.12600096 -0.104797244 0.03362059
0.070275955 -0.07837829 -0.060704757 -0.027209295 -0.093872674 -0.31920344 -0.048199177 -0.06273863
-0.18457319 -0.06277155 -0.10644141 -0.06416421 -0.045411486 -0.23951478 -0.060352273 -0.049672764
-0.2404077 -0.112732746 -0.22174703 -0.10060941 -0.30745322 0.17138721 0.19932525 -0.008967414
-0.07079881 -0.30577895 -0.13378562 0.26999193 0.050097104 -0.21235898 -0.10878205 -0.17935431
0.29621816 -0.083178006 0.02852176 -0.07064919 0.2581181 -0.16612393 -0.101020366 -0.041309576
0.33166522 0.20958784 -0.13108537 0.004622522 -0.13546138 0.2972247 0.27635285 -0.119340524
-0.10918821 -0.20161615 0.23316734 -0.26349175 -0.11717391 -0.2629536 -0.099198684 -0.08428028
0.014653076 -0.065045625 -0.076114774 -0.18690878 -0.136721 -0.13397491 -0.095568195 0.12083105
-0.111732475 0.12580395 -0.11653109 0.12819783 -0.07482402 0.0056282044 -0.033942077 -0.21109597
-0.13039689 -0.08022012 -0.17848653 -0.091273434 -0.10677385 -0.009798353 -0.08911265 -0.21523522
-0.15559657 -0.04103082 -0.14207658 0.008835428 -0.2446807 0.23106058 -0.09727301 -0.006647368
-0.17740181 -0.018233668 -0.10785782 -0.09242932 -0.101695396 0.19793838 -0.070892856 -0.06413145
-0.13708216 -0.10596148 -0.077501155 -0.09371471 -0.015713166 0.049741887 -0.30627596 0.049405523
0.030861361 0.031986315 -0.13554703 0.12471862 0.078713834 -0.06157753 -0.15943488 -0.103608124
-0.024943484 -0.2532213 -0.11011544 0.006104403 0.29416633 0.26154098 -0.15594392 -0.14548261
0.084011905 -0.07322241 -0.06238043 -0.010980721 -0.040359277 -0.053842574 -0.16682033 -0.009223726
0.12820736 -0.08374894 -0.03944936 -0.123333365 -0.052135777 -0.35869482 -0.1982489 -0.07947558
-0.27061105 -0.019933766 -0.12727022 -0.07078025 -0.041337904 -0.081726655 -0.15473036 -0.18386446
-0.15047522 -0.17029895 -0.24804316 -0.11725383 -0.33986843 0.2959036 0.33122241 -0.14389643

N.layers.1.bias f4 [128]
00000000: 7201 97bd 2775 0bbe a2a8 1b3e 8e59 c03d
00000010: 2e45 94be 5526 4dbd 758a 453e 7a8b 1ebe
00000020: 48bc 183e 09e0 82be 205b 11bc 4f05 c83c
00000030: d52b 63bd 7f48 203e 52ef 713d 95fa 09bb
00000040: 3084 f33d b8da 25be 553b 64be c6cd b5bd
00000050: 9fe8 f0bc 0d09 5b3d 3cd9 dc3d 1a76 583e
00000060: a64f 52be c259 8b3b c2a0 f7bd 55b9 7ebb
00000070: 498c 0b3e e0ab 803d 80e2 febb 4c9e f2bd
00000080: b06b 0a3e 2441 ad3d 65df dd3d 1f67 98bd
00000090: 4a64 543d 73ba 073e a79e c23d f053 c8bd
000000a0: 12a5 f2ba 8a5b 6c3c 4089 00be 74f3 fa3d
000000b0: 2f82 aebd ac91 533c ce6d fabc e1bd bb3d
000000c0: 2418 cb3d 7c61 313d e448 c93d c2b9 333e
000000d0: c244 0e3d 6917 e3bd 9cc2 f73d e995 0bbd
000000e0: 6351 003e 44d0 c23d 0f04 35be 2e30 313d
000000f0: a744 223e 5a42 eabd 67db 92bd c7e6 4dbe
00000100: f9c2 1f3d 544b cabc c494 833e 3593 cd3d
00000110: 71d0 eb3d 3c95 723c b7f5 013e 49a6 efbd
00000120: 993c a2bc 671c 05be a712 80bb 652a 18be
00000130: 2bcb 003b 3fb5 28bd e911 c2bd 783b 3b3d
00000140: 1c25 02bd b439 d2bd 422b 00be dd2d 823d
00000150: e1a9 65bd f1d1 39bd aa6c 053e 2b2b d33d
00000160: ca8d a23d 37b3 bcbd f81d 093e 84f0 b63d
00000170: 5b0a cd3d 930e 69bd 0cf2 54bd 4ea0 18bc
00000180: 5300 f2bd 452d 9a3c 9f23 553e 99d6 0fbe
00000190: 9bb1 0e3e 3e3f 863d bb03 093d d341 103b
000001a0: e507 e23b e4c2 97bd 2fc3 0dbe e7cf 433e
000001b0: 6110 d9bd 611a 283d d396 61bd c098 0ebe
000001c0: bfef 1d3e d962 8f3c 6d8b c23b 8770 09bd
000001d0: 60e2 60bd f8a6 423d 1bc0 1bbd b4d5 c63d
000001e0: 1376 253e 9915 0d3d e0b7 b03c d20b afbc
000001f0: 65c6 f53d 93fa 0ebe 68fb 6bbe 8a29 f93d
-0.073733225 -0.13618909 0.15201047 0.09392081 -0.2895903 -0.050085384 0.19291098 -0.15482894
0.14915574 -0.2556155 -0.008871824 0.024416594 -0.055461723 0.15652655 0.059066124 -0.00210539
0.11890447 -0.16196716 -0.22288258 -0.08877139 -0.029407797 0.05347543 0.10783622 0.21138802
-0.20538196 0.0042526433 -0.12091209 -0.003886779 0.13627733 0.062827826 -0.0077784657 -0.11846599
0.13517642 0.0845969 0.10833625 -0.07441544 0.051853456 0.13254718 0.09502917 -0.09781635
-0.001851233 0.0144261215 -0.12552357 0.12253466 -0.08520924 0.012913149 -0.030569937 0.09167076
0.09916714 0.04330586 0.09828356 0.1755133 0.03473354 -0.110884495 0.12097666 -0.034078512
0.12531047 0.0951238 -0.1767733 0.04325884 0.15846501 -0.11438437 -0.07170754 -0.20107566
0.0390043 -0.024694122 0.25699437 0.10037843 0.115143664 0.014806088 0.12691389 -0.11701638
-0.019804286 -0.12999116 -0.0039084735 -0.14859922 0.0019652348 -0.041188475 -0.09476072 0.04571101
-0.03177367 -0.10264912 -0.12516502 0.06356404 -0.056070212 -0.04536623 0.13029733 0.10310968
0.079372 -0.0921387 0.13390338 0.089325935 0.10011741 -0.056898665 -0.051988646 -0.009315563
-0.11816468 0.018820414 0.2081437 -0.14046706 0.13934939 0.06555031 0.033450823 0.002201189
0.0068979138 -0.07410219 -0.13843988 0.19122277 -0.10598827 0.041040782 -0.055075478 -0.13925457
0.15423487 0.017503189 0.005937031 -0.03355458 -0.054903388 0.047522515 -0.038025003 0.097087294
0.16158323 0.034444425 0.021572053 -0.021367941 0.120007314 -0.13962774 -0.23045123 0.12166126
