experiments/oc/pretrained/softcorridor_nn_checkpt.pth (torch, 8703 bytes, 7 tensors)

A f4 [5, 5]
00000000: 3630 a43e b028 00bf 89c6 473f 4a28 303f
00000010: 72e5 cd3d ea52 c5be bbc8 373f 1dcc 8ebe
00000020: f187 2fbf f6ce 5c3e d8ec 103f ba33 4c3e
00000030: baf9 c93d e6bc 0b3e 6d5e 85bf dced 23be
00000040: c0d6 f53e cf2f c33c 8050 1abf 510b 1c3f
00000050: ffc1 b63e 06e9 3dbf 38e3 14bf fa0c 66be
00000060: dd29 e43e
0.32068032 -0.50062084 0.78037316 0.68811476 0.10053529 -0.3853982 0.71790665 -0.278901
-0.68566805 0.21563324 0.56611395 0.19941607 0.09862085 0.13646278 -1.0419441 -0.16008705
0.48015404 0.023826508 -0.60279083 0.6095477 0.35694882 -0.7418369 -0.5815921 -0.22465888
0.4456319

c.weight f4 [1, 5]
00000000: 57eb 4abe ea24 8cbe 18d7 233e cb44 56be
00000010: 6164 b8c0
-0.19816338 -0.27371913 0.1600002 -0.2092468 -5.7622533

w.weight f4 [1, 32]
00000000: 59e4 843f 9c43 c83f a555 b23f 97e3 9e3f
00000010: 97bb bb3f 8cd2 9e3f fe7d 123f f743 953f
00000020: cf54 a23f 04fb b6be 3515 a43f b0cf f33f
00000030: 9bd2 cd3f 8ad1 ac3f d171 a73f 0fb4 9a3f
00000040: 37d6 b73f 8245 873f dfff 823f a96d ab3f
00000050: 3b15 793f d496 153e 1c4d 9e3f a08c 953f
00000060: 03f4 903f a95e ce3f e6f8 a43f d155 993f
00000070: 5b0e a43f f26b af3f d653 b23f 6457 dd3f
1.0382186 1.5645633 1.3932387 1.2413205 1.4666623 1.2408004 0.572235 1.1661366
1.2682132 -0.35738385 1.2818972 1.9047756 1.6079897 1.3501446 1.3081609 1.20862
1.4362248 1.0568087 1.0234336 1.3392841 0.9729802 0.14608318 1.2367282 1.168354
1.1324466 1.6122638 1.2888458 1.1979314 1.2816881 1.3704817 1.3931835 1.7292295

N.layers.0.weight f4 [32, 5]
00000000: d656 d7be 78c6 993e ed3b 0cbf f7d3 97be
00000010: 7651 963d c0d6 ce3b 5b41 1f3f 93a9 b4bd
00000020: 74cc bbbe 382c f5be 1c67 8fbe e32e 11be
00000030: b425 053f 1251 4dbf d644 ad3e b5a1 1b3e
00000040: 2e79 473e 6562 c8be 5156 97be 9255 24bf
00000050: a25e aa3c 8005 823d c597 0a3f 438e cfbd
00000060: 05d7 433f 3d60 f7be 0035 e53d 05d8 7e3d
00000070: e6bb 5c3e 4438 b93e 12f3 d5bd a4d9 ab3e
00000080: 2c4c 013f 89de e8be 030d 45be a727 88be
00000090: e85b 493e 196c bf3e 1277 393e b928 033f
000000a0: f5f0 0a3f 4be3 a03e a7cc 053f 60eb 3a3f
000000b0: 7485 ebbe 3b67 213d 63e0 59bf cce6 c63e
000000c0: df79 ccbe 6bab 00bf 8a9d 37be bac2 393f
000000d0: b03a 853e e891 ae3d 73bf 9d3d 4778 a13e
000000e0: 00b4 84be 92c0 563e 0d63 e63d fae3 023f
000000f0: da90 253e f95a 0d3f 6702 d53d 4cbd 5abf
00000100: d8a8 3dbe 6fcf 0ebe d27d 1fbc 554e 22bd
00000110: cbbe 3a3e 7f98 34bf ac15 9bbd fbed c33d
00000120: a482 f4bd 0953 053e 61fa 4bbf 9dd4 62bd
00000130: 7959 1d3f 1823 393e 695e 763d afea 85be
00000140: f837 9abe f62e 203d e8cf 7dbe 7982 76be
00000150: 31dd 0f3e de4a a43e 0a41 adbe 6cb6 c3be
00000160: df71 bc3c 0495 69be f2c9 12be 8810 743e
00000170: 7a84 283d 4ee7 083e 84d8 72be b45b 26be
00000180: a5ac 563e ba36 043e 2662 013f 173d 163e
00000190: efa2 243f 0b36 1cbe 67c5 a4bf 9f02 ad3e
000001a0: c969 083f d31e a5be 7a29 3dbd 8498 ef3e
000001b0: 221a 67bf 3c09 60bf c063 853e 34e3 84be
000001c0: 3420 b0be ff56 cebe deeb 8ebd 21f6 0e3e
000001d0: 116a 5cbe da78 87bd a5d5 83bc 6723 003f
000001e0: 61f9 483e a2ea bb3e 8ae6 c4bd 7f3c c7be
000001f0: 1880 10bf 5d0c a6bd 647f dbbe 1a93 97bc
00000200: 3d3e 82be 118e c23f 751d edbe 9ec6 a73e
00000210: 0aa0 52bf 73b5 d53d b64b 833e 8081 ed3e
00000220: 385b 22be 3ed1 073e a454 a33d 47b9 2fbf
00000230: 3bb7 d33d 0414 62be 8162 93be bbfe cdbe
00000240: 96c2 44be 8338 27be 140c ea3c c226 d83d
00000250: 4009 9cbd 5ca0 593f 9d0b 5fbe a35a 0b3f
00000260: 3c33 813e ef36 81bb 5ced 873d e15d 343f
00000270: ca41 f73e d487 49be f34a 9cbe 28df 6f3e
-0.42058438 0.30034232 -0.5477894 -0.29653904 0.07339756 0.0063122213 0.622091 -0.08821406
-0.36679423 -0.478853 -0.28008354 -0.14178042 0.52010655 -0.8020183 0.3384158 0.15198405
0.1947982 -0.3913757 -0.29558042 -0.6419307 0.020797078 0.06348705 0.5413783 -0.10134556
0.7649997 -0.4831561 0.111917496 0.06221773 0.21556053 0.3617574 -0.104467526 0.33564484
0.50506854 -0.4548228 -0.19243245 -0.26592752 0.19663966 0.3738716 0.18111828 0.5123401
0.5427392 0.3142341 0.522654 0.73015404 -0.46000254 0.03940509 -0.8510801 0.3884796
-0.3993673 -0.50261563 -0.1793119 0.72562754 0.26021338 0.08523923 0.07702532 0.31537077
-0.2591858 0.20971897 0.11249361 0.51129115 0.16168538 0.5521694 0.10400849 -0.85445094
-0.1852144 -0.13946317 -0.009734588 -0.039625484 0.18236844 -0.7054519 -0.07572493 0.095668755
-0.1193898 0.13019957 -0.7967892 -0.055378545 0.6146465 0.18079793 0.06014863 -0.26155612
-0.30120826 0.039107285 -0.24786341 -0.24073209 0.14049222 0.3208837 -0.33838683 -0.38225114
0.023003517 -0.22810751 -0.14334849 0.23834431 0.041141964 0.13369486 -0.23715407 -0.1624592
0.20964296 0.12911502 0.5054039 0.14671741 0.64311117 -0.15254991 -1.2872742 0.33791062
0.53286415 -0.3225008 -0.046182133 0.46796048 -0.9027425 -0.8751409 0.26052666 -0.25954592
-0.3439957 -0.40300748 -0.06978582 0.13961078 -0.21524836 -0.066148475 -0.016093085 0.5005402
0.1962638 0.36702448 -0.09614284 -0.38913342 -0.56445456 -0.08107827 -0.4287063 -0.01850276
-0.2543811 1.5199605 -0.46311536 0.3276872 -0.8227545 0.10434999 0.256437 0.46387863
-0.1585511 0.13263413 0.07975128 -0.68642086 0.10337683 -0.22077948 -0.2878609 -0.40233406
-0.19214854 -0.16330151 0.028570212 0.105542675 -0.07618952 0.85010314 -0.21781774 0.54435176
0.252344 -0.003943316 0.066370696 0.7045575 0.4829238 -0.1968072 -0.30525932 0.23424971

N.layers.0.bias f4 [32]
00000000: 89e9 0a3e d8b6 95be a3f0 4c3f e103 1d3d
00000010: 059d fd3e 3c69 ce3e 58d0 f83d ad33 463f
00000020: 5f0e dcbe 358b b43e a005 283d b1ee 553c
00000030: 17db b23e 11e0 86be aad8 28bf 8c24 563e
00000040: a504 9a3e 9051 b5bd 0854 acbe 2d48 53be
00000050: 3e6f d93d ff44 25bf bab9 273b 9f7d 0a3f
00000060: 82ab 96be e01d 87bf cb56 303b e8a7 fbbe
00000070: 233e 71be db1e 093f 7287 b83d 2129 59bf
0.13565649 -0.2924106 0.8005468 0.038333777 0.4953386 0.40314662 0.121491134 0.774226
-0.42979714 0.35262457 0.04102099 0.013057397 0.34932777 -0.26342824 -0.65955603 0.20912379
0.30081668 -0.088534474 -0.3365786 -0.20633002 0.10616921 -0.64558405 0.002559288 0.5409793
-0.29427725 -1.0555992 0.0026907201 -0.4915154 -0.2355886 0.53562707 0.09010209 -0.8482838

N.layers.1.weight f4 [32, 32]
00000000: aaf9 493d 4394 1c3e bc79 283e 9a7f fbbd
00000010: 3b7f e2bc 9a70 8c3e 5e3c 99be 7db3 653e
00000020: c0fd 813e e41d d1be 711d 33bd b0ca 77bd
00000030: b673 b73c 7941 45bc 424b a13e 5e3a 293e
00000040: be59 b1bd c0c6 68be 83c9 04bd 7e3f a53d
00000050: fd9c 503e d9b9 8fbe c1db 343d b096 6e3c
00000060: 01d8 b03e 74db c23d 248b 4a3e 388d 6f3e
00000070: 3d6c 253e 3b44 913e 3172 77bd 47f6 51be
00000080: 279c 27be 469c b73e dc2a ac3e 29c4 9abd
00000090: e052 833d f33a d03d 28b4 86be ea77 203d
000000a0: 2ceb a03e 7d58 25bf 7b1e ccbd 4d7e 9fbd
000000b0: 1460 c23e 0153 903e 3fb0 643c 3535 543e
000000c0: 4bf3 633e 98fa f8be 9956 863e 2273 09be
000000d0: 7ea9 243f 33df 33bf e241 02be 5d20 523e
000000e0: 7b24 943e 8dd5 913f a130 9f39 433c cd3d
000000f0: f257 47be ba2c 923d dadb 52be 3704 ebbe
00000100: f440 81be 1516 ff3e 91a4 183e b22e eabd
00000110: acc2 2b3f bb8d a33e 119d 32bf 186f 273e
00000120: 99da 3b3e a142 31bf 04e7 4e3e 685d 92bd
00000130: e31e 313f 5ec8 d53e 36b6 003e b43b d63e
00000140: dec6 b3bd 46d7 5cbe 319b 093d 8b5b 5c3e
00000150: ecce 7f3f 4c65 95bf 98d4 fcbd 85aa dabc
00000160: e292 533e 2873 0040 3a87 463e dfdf 0d3e
00000170: 9783 523e 3697 ff3d 5432 8ebe 60c9 6cbf
00000180: 3355 933e 768d 333f a9ab 3bbe 5aa3 2c3d
00000190: 1fcc 86be a1d3 0d3e a580 00bf d378 4e3e
000001a0: b82d b0bd ef3b 47bf 5b2f 04bd d31e d93e
000001b0: f406 303f 7ce1 083f e210 e23d f27f 4c3e
000001c0: dc80 943e d7da 84bd 0be2 703e d71f 283e
000001d0: 0b68 f33e 07ea 2cbf e64d 5e3e b720 ee3e
000001e0: 5b2f 8e3e d0b4 563f d6d2 413e 7f39 cf3e
000001f0: c122 b23e d792 853e 2032 843e 0ca7 5abf
00000200: 3231 993d 79e2 a63e 0488 fe3d 91e5 18be
00000210: a0fe 8b3e 90ca 2b3e 358c 44be 40c9 903e
00000220: 6780 4e3e 2586 33bf 2260 d4bc bb3f bebd
00000230: d78e 0b3e b27c 123e 3bc0 a73e ed88 f53b
00000240: 8247 913c d629 893c 3e16 bb3d d7ce b93d
00000250: 342f de3e d405 11bf f360 7abd 820d d73e
00000260: 0920 283e 246e f03e 5545 3fbd 17ef 223e
00000270: 01f3 5c3e 7e57 9c3e d4d3 713c 3f8b 28be
00000280: c3a2 4fbd 751f d6be 7090 ebbd f7f9 cbbd
00000290: 991d a7be cab0 7cbe a62a 043f 357d 82be
000002a0: e995 70be b1ea 033f 2ae5 dbbd 80b9 a33d
000002b0: 993a b5bd 7530 8abe 7e48 80be 5e47 e63b
000002c0: 659a 6ebe 8e92 2c3e 10aa 7cbe 4e05 99be
000002d0: f48b 04bf 338c 3a3f de19 40bd 2c13 7fbe
000002e0: 615b 08be 029b 2dbf 27f9 dfbd c572 d2bd
000002f0: 81fd 11be 732d 6cbe bc5e 343e 51c3 923e
00000300: 225f 393e a14e 9ebe f42e adbd 7eb4 4d3d
00000310: 0f8e 91be 472f d6bd e920 ab3e 1f04 69be
00000320: e355 9bbe f49f d73e 33f2 6abe 0b3b f33d
00000330: 2495 22be 9160 adbe 8e56 1abe e0d5 24bd
00000340: 4e9e 533d 98c8 163d d5a0 023c 53aa 63be
00000350: 8d91 99be 2d1e ca3e f949 18be 8909 06be
00000360: 5701 16be 86da e3be 80dc b83c db15 5ebe
00000370: 286b e7bd 55fd ddbc 329f 91bd f9de d73e
00000380: 94d4 b3bd cfe9 ac3e 6024 b13e ce4f 073e
00000390: 5160 813e cb31 c23d f72f 17bf af3a a73e
000003a0: 3e33 9e3d 63c7 0dbf 8476 d83d d6e7 78bd
000003b0: a04c 843e 2c28 493e 5c03 303e 8452 643e
000003c0: 5c28 533e 322a 96bc 8092 b4bc 3d01 9f3d
000003d0: 2028 ec3e b8f4 16bf b6e2 ab3d 49d3 bb3e
000003e0: e599 523e 7af4 063f 7216 713e 00fa 683e
000003f0: da5c c0bd e685 333d 075b 9c3c d16f eabe
0.049310364 0.15290932 0.16452688 -0.122801974 -0.027648559 0.27429658 -0.2992887 0.2243175
0.25388908 -0.40843117 -0.04372925 -0.060496032 0.022394042 -0.012039536 0.3150273 0.16526172
-0.08659695 -0.22732067 -0.03241874 0.08068751 0.20372386 -0.28071478 0.044154886 0.014562294
0.34539798 0.095145136 0.1977964 0.23393714 0.16154571 0.28372368 -0.060411636 -0.20504104
-0.16368161 0.35861415 0.3362645 -0.07556946 0.064122915 0.10167494 -0.26309323 0.03917686
0.31429422 -0.6458815 -0.09966751 -0.07787762 0.37963927 0.28188327 0.013958036 0.20723422
0.22260778 -0.48628688 0.26237944 -0.13422826 0.64321125 -0.7026245 -0.12720445 0.20520158
0.28934082 1.1393296 0.00030363075 0.1002126 -0.19467142 0.07137437 -0.20591679 -0.45901653
-0.25244868 0.49821535 0.14906527 -0.11434688 0.6709392 0.3194407 -0.69770914 0.16350973
0.18345107 -0.6924229 0.20205313 -0.07146722 0.69187754 0.4175443 0.12569508 0.41842425
-0.08778165 -0.21566495 0.033595268 0.21519296 0.9992511 -1.1671538 -0.123452365 -0.026692638
0.206615 2.0070286 0.19387522 0.13854931 0.2055801 0.12480013 -0.27772772 -0.92494774
0.2877594 0.7013773 -0.18327202 0.04214797 -0.26327607 0.13850261 -0.50196296 0.20163278
-0.0860247 -0.77825826 -0.032271724 0.4240633 0.6876061 0.5346906 0.110383764 0.19970682
0.29004562 -0.06487053 0.23523729 0.16418396 0.47540316 -0.675446 0.21709403 0.46509334
0.27770504 0.8386965 0.18928084 0.40473554 0.3479214 0.26088592 0.25819492 -0.85411143
0.074800864 0.3259466 0.12428287 -0.14931323 0.273427 0.1677649 -0.1919411 0.28278542
0.20166169 -0.70126563 -0.025924746 -0.09289499 0.13628708 0.1430538 0.32763848 0.0074931295
0.017734293 0.016743582 0.09135102 0.09072655 0.43395388 -0.5664952 -0.061127614 0.42002493
0.1641847 0.4695903 -0.04669698 0.15911518 0.21577074 0.305355 0.014759976 -0.16459368
-0.05069233 -0.41820875 -0.11502159 -0.099597864 -0.3263977 -0.24676815 0.51627576 -0.2548615
-0.23494686 0.51529986 -0.10737069 0.07994366 -0.08849067 -0.26990095 -0.25055307 0.0070275506
-0.23301084 0.16852781 -0.24674249 -0.2988686 -0.5177605 0.7287018 -0.04689967 -0.24909657
-0.13316108 -0.6781465 -0.10936194 -0.10275797 -0.1425686 -0.23064213 0.17614263 0.2866464
0.18102697 -0.30919364 -0.08456221 0.05022096 -0.28428695 -0.10458236 0.33423546 -0.22755478
-0.30338964 0.42114222 -0.22943954 0.11876496 -0.15877205 -0.33862737 -0.1507208 -0.04024303
0.051664643 0.036812395 0.007972916 -0.22232942 -0.2999386 0.39476147 -0.14871968 -0.13089575
-0.14648949 -0.44502658 0.02256608 -0.21688025 -0.11299735 -0.027098337 -0.07110442 0.42162302
-0.087807804 0.33772132 0.34598064 0.13214037 0.25268796 0.094821535 -0.59057564 0.3266196
0.077246174 -0.55382365 0.1056948 -0.06076797 0.2583971 0.1964423 0.17188781 0.22297102
0.20620865 -0.018330667 -0.022042513 0.07763908 0.46124363 -0.5896716 0.08392851 0.36684635
0.20566519 0.5271679 0.23543718 0.22751617 -0.0939271 0.043828867 0.019086374 -0.45788434

N.layers.1.bias f4 [32]
00000000: b25f 9e3d 5c49 be3e 6732 ea3e 457e 263f
00000010: aad9 503e 7031 17bd 6107 6abe a7fb 033d
00000020: 882e 373e 65e8 dbbc 5ee3 0b3e 3ec3 01bf
00000030: 3a0c 2abd a236 f1be 7287 a6be 3df8 6cbe
00000040: eb2a ccbe 63ed a5be 84a8 6ebe c546 c23e
00000050: 7c43 df3d 3ec2 c5bd ca1e 933e 9ef5 40be
00000060: 8b71 503e 2620 2fbd b0a7 783e 4d9e 2ebd
00000070: 70c6 7b3f bf01 a53e 7d2e 0bbf b7f8 8e3f
0.07733096 0.37165344 0.4574158 0.6503642 0.20395532 -0.03691238 -0.22854377 0.032222416
0.17888844 -0.026844213 0.13660952 -0.5068854 -0.041515566 -0.47111994 -0.32525212 -0.2314157
-0.39876494 -0.32407674 -0.23306471 0.37944618 0.109015435 -0.096561894 0.28734428 -0.18843696
0.20355813 -0.04275527 0.24282718 -0.042631436 0.98349667 0.32227895 -0.5436781 1.1169652
