experiments/oc/pretrained/swap12_nn_checkpt.pth (torch, 12223 bytes, 7 tensors)

A f4 [10, 25]
000000 52 94 00 bf ab 37 a2 bc 27 34 b0 be 50 e7 c0 be
       -0.5022632 -0.019801935 -0.3441479 -0.37676477
000010 c2 b9 d9 3d 9f a5 ee 3d 18 6f 7f be e8 35 d8 be
       0.106311336 0.116526835 -0.24944723 -0.42228627
000020 39 b3 4c 3e 4a 1b a6 bd 14 d6 80 3c c3 c5 ef 3e
       0.19990243 -0.08110674 0.01572708 0.46830568
000030 5b 63 a7 be 73 b4 91 3d 42 71 3e 3e ba 00 52 3d
       -0.3269299 0.07114496 0.18597892 0.051270224
000040 a0 73 16 bd 38 12 d2 bd 3b 45 99 3e 05 7f 1d be
       -0.036731362 -0.10257381 0.2993563 -0.15380485
000050 4a d0 03 3e 26 bd c7 3e b3 5c d2 bd 30 bc b0 be
       0.12872425 0.39011496 -0.10271587 -0.34518576
000060 31 92 50 3f b3 9c f7 be 68 b4 10 3f 8b a3 54 3e
       0.8147307 -0.4836174 0.5652528 0.20765512
000070 0a 42 d1 bd 20 bc db bd 40 9e 55 3e 0f 2b 1c be
       -0.10217674 -0.10729241 0.20861149 -0.152508
000080 38 49 d6 be 2c 36 db 3e 9a f9 be be 9d 86 b5 3e
       -0.41852736 0.42814767 -0.37299806 0.35454264
000090 82 5f 2c be 27 00 d1 be ae 20 d5 3e 1f a7 90 3e
       -0.16833308 -0.4082043 0.41626495 0.28252503
0000a0 7b 32 c0 3d 11 6b 44 3e 92 55 d2 3c 3c 49 a6 be
       0.093846284 0.19181468 0.025675569 -0.32477748
0000b0 87 07 cc bd b9 0a 20 3e 85 ee fb 3e 96 d5 72 3d
       -0.09962373 0.1562909 0.49205413 0.059285723
0000c0 5f 3d 90 3e f0 6a d8 be cf 16 0c 3e c8 63 97 3e
       0.28171822 -0.42269087 0.13680576 0.29568315
0000d0 01 08 13 3e 9b 23 51 bd ec 54 cb be ef d2 fe 3e
       0.14358522 -0.051059347 -0.39713228 0.49770305
0000e0 48 83 d5 bd 21 17 09 bf ac 51 03 be bd 9e 9f 3b
       -0.104254305 -0.53550917 -0.12824124 0.004871218
0000f0 ef 27 67 3d 45 ed 72 3e f3 6d b1 3d 1a d2 98 3e
       0.056434568 0.23723324 0.08663549 0.29847795
000100 c3 fe 8c 3c c3 12 15 bf 72 83 15 bd 9b 7e 1d bf
       0.017211324 -0.58231753 -0.03650231 -0.6152131
000110 4f dc 26 be d8 4b 34 be 3d 96 bf be 85 51 30 be
       -0.16294979 -0.17607057 -0.3741931 -0.17218597
000120 d5 4b 83 be 86 c3 90 be b1 28 92 be cb 3d f2 3e
       -0.25643793 -0.28274173 -0.2854667 0.4731277
000130 3b 1e fa be 02 4f 04 bf 4f c0 0d bf 7f bc 4a be
       -0.4885119 -0.51683056 -0.55371565 -0.19798468
000140 44 99 1d bf 65 68 cc bc 35 32 2a bf 55 7d f9 be
       -0.6156199 -0.024952123 -0.6648286 -0.48728433
000150 44 43 80 bc 4d 5e 2b be a3 2c 58 bc ed 53 bf bd
       -0.015657075 -0.16735192 -0.013194236 -0.093421794
000160 ff c0 81 be 29 85 1f be 15 66 4d bf e1 43 05 bd
       -0.25342557 -0.1557814 -0.8023389 -0.032535437
000170 e3 ba b2 3d c6 b8 01 3e 2a 46 a2 3e 38 08 5e bd
       0.08727052 0.12668142 0.31694156 -0.054207057
000180 0e ea 06 bf 0d 7c 4c bf d4 23 83 3e f8 aa c4 be
       -0.5270089 -0.79876786 0.25613272 -0.3841169
000190 dc 71 f3 be bf fb fc bd 0d ef 27 be 27 a0 c4 3e
       -0.47547805 -0.12352704 -0.16399784 0.38403437
0001a0 9d 61 59 3c 22 6e b5 be b4 a9 ee bc b6 4a 72 3e
       0.013267902 -0.35435587 -0.029133655 0.23661312
0001b0 31 18 a7 3e 90 73 db be 6c 6a 8b bd 5c 76 f1 3d
       0.32635644 -0.42861605 -0.06807408 0.117901534
0001c0 93 da c4 3e 88 17 a7 bd b1 f8 88 bd 83 d8 a1 be
       0.3844801 -0.08158785 -0.06688059 -0.31610498
0001d0 c1 95 c6 bd 8b f1 82 be c2 7f ba be a5 f9 ad bd
       -0.09696532 -0.25574908 -0.36425596 -0.084948815
0001e0 5e be b1 3b c7 b0 ce be 52 6a 07 3e e6 bc ab be
       0.005424305 -0.40369245 0.13224152 -0.33542556
0001f0 cb b5 9d bf cc 29 19 3e a5 bd 44 3e 0d fc 21 bf
       -1.2321104 0.1495735 0.19212969 -0.63275224
000200 d0 98 21 3e 6f 76 4a 3e 5b f3 cd 3e 14 70 b1 bd
       0.1578095 0.19771741 0.40224728 -0.08663955
000210 72 fa bd bd d4 73 8b be 01 d0 15 be 83 10 71 3e
       -0.09276284 -0.27236807 -0.14630128 0.23541455
000220 e7 ad 97 3e 32 cf a8 bd cc 1c fa 3e b4 71 c9 bd
       0.29624864 -0.08242644 0.48850095 -0.0983614
000230 dc 5b 9f be 9f 4a 97 bd 12 68 72 be f1 a0 b2 3e
       -0.3112477 -0.0738728 -0.23672512 0.34888414
000240 23 ea a6 be cd 4a 76 3e ae 01 8b 3c 0a f4 02 bf
       -0.32600507 0.24051972 0.016968574 -0.51153624
000250 be aa 54 3e 96 23 2d 3f e4 10 82 3e a0 7b 6b be
       0.20768258 0.67632425 0.25403512 -0.22996378
000260 72 13 9e 3e 1f 71 e3 3e 9b 80 e5 be ea 30 df bd
       0.3087421 0.44422242 -0.4482468 -0.108980015
000270 45 71 cd 3d 0b 65 97 3e 8d ff 6d 3c a9 cd 61 be
       0.1003137 0.29569277 0.01452626 -0.2205111
000280 13 b1 5c be e6 a7 0a bf 6a 50 66 be 8b 47 b2 3e
       -0.21551923 -0.5416244 -0.22491613 0.34820208
000290 5a 23 78 3c 95 3b 15 bf 59 17 2e 3d 2c f0 c9 bc
       0.015145147 -0.5829404 0.042502735 -0.024650656
0002a0 ee b7 a2 be d9 be 73 be b1 0e a9 3e 73 9d 5b be
       -0.31780952 -0.23803271 0.3301902 -0.21446781
0002b0 8d 27 b2 3e f8 0a 68 3d 75 17 84 3e 99 41 92 3e
       0.347958 0.056651086 0.25799146 0.28565672
0002c0 7d c9 76 3e 9b 01 01 3f 7b 28 40 3e b0 21 56 3e
       0.24100299 0.50393075 0.18765442 0.20911288
0002d0 97 9c 19 3e 4d 1c 38 be 6a b2 df 3c 92 b7 a1 3d
       0.1500114 -0.17979546 0.027306754 0.078963414
0002e0 e6 4c f5 3c 35 b1 40 3e fb 04 17 be 4a fb 47 3e
       0.029943895 0.18817599 -0.14747994 0.19529453
0002f0 0e 67 ac bd 49 63 07 be 04 6a fa 3d 1c 8c 8d 3e
       -0.084180936 -0.13221468 0.12227252 0.27645957
000300 14 f4 d9 bc cf dc d6 3e 6d a4 c2 be 49 4d 9f be
       -0.026605643 0.4196534 -0.38016072 -0.3111365
000310 0c a1 8d 3d 49 11 5d bd 7e 1c e1 3e 12 5b 33 bf
       0.06915483 -0.053971563 0.4396705 -0.7006084
000320 fb d2 d4 3e db 8e ae 3e 08 1c 20 3f 63 f3 30 3f
       0.41567215 0.34093365 0.6254277 0.6912138
000330 ab 66 06 3e 9d d0 aa bd 69 eb 3a 3e 23 69 aa 3e
       0.13125102 -0.08340571 0.18253864 0.33283338
000340 1a f7 88 3b 0e 33 af bd 31 9f e2 3d d2 d1 bd be
       0.0041798474 -0.0855466 0.110655196 -0.37074143
000350 ff b0 ed 3e cd f2 fb 3d d3 73 fb bd 03 25 28 bf
       0.464241 0.1230217 -0.12277951 -0.65681475
000360 cf d6 92 3c 02 d8 17 3f 44 7d bd be 02 17 3a bd
       0.017924694 0.59313977 -0.37009633 -0.0454321
000370 91 c3 25 be 69 b2 01 bd 8b 2a 30 bf c1 c6 16 be
       -0.16187884 -0.031664286 -0.68814915 -0.14724256
000380 0f d9 a4 bf 5e 95 b7 3d b1 4e ba 3e c3 84 5a be
       -1.2878741 0.089640364 0.36388162 -0.21339707
000390 34 15 dd 3e 35 ac 98 3e 12 ad 9c be 6e 62 8b bd
       0.4318024 0.29818884 -0.30600792 -0.06805883
0003a0 1e 8e 9a 3e 66 8c ff 3d c1 52 1e be 28 31 9f 3d
       0.30186552 0.12477951 -0.15461256 0.07773048
0003b0 5b 56 f3 3e 7a 81 6d bc 59 f4 3d bd 13 b3 65 3e
       0.47526821 -0.014496202 -0.046375606 0.22431593
0003c0 98 86 be be fd f3 1c 3e 05 e6 d5 be 0c b8 9d 3e
       -0.37212062 0.15327449 -0.41777053 0.3080448
0003d0 55 82 21 be f0 11 8f be 77 d3 05 3e 09 df 6c 3e
       -0.15772374 -0.27943373 0.13068949 0.23131956
0003e0 27 56 ff bc 61 57 38 be
       -0.03116901 -0.18002082

c.weight f4 [1, 25]
000000 37 99 95 bd 23 2b ed be ba e7 a4 3e a4 3f 2a 3e
       -0.07304614 -0.46321973 0.32208043 0.1662584
000010 c8 ef 8b bf b8 42 79 3e e2 f4 48 3f 44 b4 c7 bd
       -1.093255 0.24341857 0.7849866 -0.0975118
000020 52 25 8c bf 70 c9 9c be 8e 5b c0 3d 0f 60 b0 3e
       -1.0948889 -0.30622435 0.09392463 0.34448287
000030 aa 21 29 3f 60 84 9d be d0 61 93 3f 5a 47 39 3e
       0.6606699 -0.30765057 1.1514225 0.18093625
000040 8c 07 38 bf eb 53 47 3e 45 60 11 3f ec c0 ff be
       -0.71886516 0.19465606 0.5678752 -0.49951875
000050 b8 af 9f 3d 51 85 f3 3e 94 be 12 3e 1a f1 30 3f
       0.077971876 0.4756265 0.14330512 0.6911789
000060 5a e4 a9 c0
       -5.309125

w.weight f4 [1, 32]
000000 81 e0 0c 40 d3 1c 06 40 55 b5 e7 3f ca c4 dd 3f
       2.2012026 2.0955093 1.8102213 1.732568
000010 ad b7 00 40 2a f4 f2 3f 2c 52 bf 3f 70 d7 08 40
       2.0112107 1.8980763 1.4946952 2.1381493
000020 82 5c 00 40 c0 31 f3 3f fb 9f 16 40 f1 b7 fb 3f
       2.0056462 1.8999557 2.3535144 1.966551
000030 e9 4a fb 3f 41 29 06 40 39 7a e8 3f 99 72 07 40
       1.9632236 2.096268 1.8162299 2.1163695
000040 94 ae 17 40 9a 11 0f 40 0d f9 f2 3f 17 4a 00 40
       2.3700304 2.2354493 1.8982254 2.004522
000050 28 1b f0 3f 0e 7f 02 40 82 66 bf 3f ea 76 ff 3f
       1.8758287 2.0390048 1.4953158 1.9958165
000060 fd 4b ec 3f 36 9e 0d 40 a7 8d 0e 40 ec 02 05 40
       1.846069 2.2127814 2.2273958 2.0783033
000070 64 bd db 3f d6 11 0f 40 3b b6 01 40 88 26 fe 3f
       1.7167172 2.2354636 2.0267475 1.9855509

N.layers.0.weight f4 [32, 25]
000000 80 f7 8f 3e b5 68 87 be 8b 69 85 be 42 9f 6a 3e
       0.28118515 -0.26447073 -0.26057085 0.22912315
000010 e9 e6 79 be bb b9 be 3d 4d aa a2 be ce 9b 82 bd
       -0.24404491 0.09312769 -0.31770554 -0.06377374
000020 f0 d4 39 be cd 09 60 be bc e9 70 be 65 44 36 be
       -0.18147635 -0.21878739 -0.23526663 -0.17799528
000030 50 d4 23 3c 6f 5e 93 3e 1a fe fa bc fd 30 6b bd
       0.00999935 0.28782985 -0.030638743 -0.057419766
000040 a6 f6 2b be e3 7c 89 3e ad 40 a8 3d d3 61 22 3e
       -0.16793308 0.26853094 0.08215461 0.1585763
000050 bb 01 e7 bc 1f 0f 9a 3e 08 c5 b0 bd fe ca 9b be
       -0.028199067 0.3008966 -0.08631331 -0.30428308
000060 72 5f ce be 90 4c 98 3e 24 14 53 3d 65 da a9 3e
       -0.40307194 0.29745913 0.05153288 0.33174434
000070 64 ec ec 3d bb eb 59 3c 36 30 05 bf ae 67 20 3e
       0.115685254 0.013300831 -0.5202669 0.1566455
000080 22 db 81 be 78 48 f5 bc 6d 8f 54 3d ce 34 1b bd
       -0.25362498 -0.029941782 0.051894594 -0.037892155
000090 7a 77 85 3e 3c c8 6c 3e 35 97 f6 bc 86 c9 5a be
       0.26067716 0.23123258 -0.030101398 -0.21365938
0000a0 7a 11 86 be 42 ae cd bd 0e 50 2b be d8 6a ae be
       -0.2618521 -0.10043003 -0.16729757 -0.3406589
0000b0 ec 2e c5 bd 9e 8f 7a 3c 4b 5c 49 3e 7e 8a 7c 3e
       -0.0962809 0.01529303 0.19664113 0.24662206
0000c0 b0 e4 6d 3e f0 27 1d 3f 25 3e 13 3e 1c 56 f6 3d
       0.23231769 0.61389065 0.14379175 0.12028143
0000d0 45 be 59 3e be 41 b0 be 55 03 03 bd 1f a3 4a 3d
       0.21263988 -0.34425157 -0.0319856 0.04947197
0000e0 7f f5 1d 3e 77 68 78 bd 85 c5 0a be 95 c7 5b be
       0.1542568 -0.0606465 -0.1355191 -0.21462853
0000f0 02 d9 80 3d d1 41 f7 3c ad c5 87 be a4 00 9e 3e
       0.06291391 0.03018275 -0.26518002 0.30859864
000100 56 34 81 3d d4 18 3e 3d f4 a7 9b be 0b 0e 8d be
       0.063088104 0.046410397 -0.30401576 -0.27549776
000110 ef ad 9e be e2 a6 d1 3e 03 f3 a2 bd e2 86 84 3e
       -0.30992076 0.40947634 -0.07956507 0.25884157
000120 e4 2e 19 3d a1 27 b2 3d 9e f5 9f be 1a 5a 59 bc
       0.037398234 0.08698965 -0.3124208 -0.013266111
000130 84 53 22 be 79 3a 88 3e 6f d8 a3 3e 63 3f 53 3e
       -0.15852171 0.2660711 0.32001063 0.20629649
000140 bd d6 23 3e 24 2f 40 3e 94 14 16 be 50 86 d4 bd
       0.15999885 0.18767983 -0.14656287 -0.103771806
000150 67 e5 81 3e 40 9e b3 3d 33 d7 0f 3e 0d 8f b7 be
       0.25370333 0.08770418 0.14046936 -0.35851327
000160 6b a5 c3 3d 9b 08 04 3e 5e 96 b6 bc b6 86 8f be
       0.09553035 0.12893908 -0.022288498 -0.28032464
000170 02 6e 41 3d 66 60 20 bc 63 9d 5a be 55 4c 58 be
       0.047224052 -0.009788608 -0.21349101 -0.21122868
000180 8d 82 d8 3c bc 8e c0 3e cb 1f 24 be 54 42 e3 3f
       0.026429439 0.37608898 -0.16027753 1.7754617
000190 9a bb fd 3e 54 40 24 3e a1 60 82 be 34 e7 d7 bd
       0.4955719 0.16040164 -0.25464347 -0.10542145
0001a0 62 db 26 3e ab 39 88 3d 5d 51 b7 3d e5 95 0e 3e
       0.16294625 0.06651624 0.08951066 0.13924368
0001b0 f2 32 a0 3d f9 58 95 bd 10 47 8c be c2 42 07 3e
       0.07822217 -0.07292361 -0.27397966 0.1320906
0001c0 8b d4 71 be 6b b8 7e be 8d 14 4f bd c8 57 b0 3d
       -0.23616235 -0.24875037 -0.050556708 0.08610493
0001d0 f8 e0 46 be 63 53 02 3d 01 c4 bb 3b 79 24 87 be
       -0.19421756 0.031817805 0.0057301526 -0.26395014
0001e0 6c 2d c7 3e 06 b1 84 bd 5e 96 d2 bd fe ff e7 3c
       0.38901842 -0.06479077 -0.102825865 0.028320309
0001f0 b5 98 c5 bf c6 34 a9 3e 20 ae 50 be c9 68 63 3e
       -1.5437227 0.33048075 -0.20378923 0.22207941
000200 62 47 88 be 5f f9 b3 3d 0d 5c 4b 3e 5b 0f 43 3e
       -0.2661696 0.08787798 0.19859333 0.19048826
000210 80 b0 ce 3c d9 7e 54 3e 5c 0b 0c 3d fb a7 f7 bd
       0.025230646 0.20751514 0.03419052 -0.120925866
000220 d8 db 0e bd e0 9a a3 be c7 9c b1 3d 59 bd 90 3e
       -0.034877628 -0.31954098 0.08672481 0.2826946
000230 c4 3c bb be ab 8a 35 be 72 f7 d9 bd aa 75 96 3e
       -0.36569798 -0.17728679 -0.106428996 0.29386646
000240 a7 8c a0 bd 81 f2 73 bd 51 4b 6d be 18 39 c3 bd
       -0.07839327 -0.05955744 -0.23173262 -0.09532374
000250 ee 08 f8 3e d2 da 10 3f dc 39 2f be 10 88 30 be
       0.48444313 0.56583893 -0.17111915 -0.17239404
000260 12 2a 46 be e4 06 7f 3c 67 88 5b 3e 82 de a7 3e
       -0.19351986 0.015565608 0.21438752 0.32786947
000270 1c 27 0a 3e 5d 11 1a 3e 4a 91 b3 3e 60 40 5e bd
       0.13491482 0.15045686 0.35071784 -0.05426061
000280 13 b7 d6 3e da c0 c9 bd ef dc 39 3d 09 91 50 be
       0.4193655 -0.09851237 0.045376714 -0.20367827
000290 25 22 c7 be a1 4e 12 be 1b f0 9e be ad 2e a3 3c
       -0.38893238 -0.14287807 -0.3104256 0.019919718
0002a0 c7 c4 fd bd b5 4b 08 3e 8b 73 98 3e 5c dd 2b bc
       -0.12391048 0.1331013 0.29775652 -0.010489788
0002b0 95 44 07 3e a9 2c bc bd 95 29 89 bf c7 e7 c0 3e
       0.13209756 -0.09188206 -1.0715815 0.37676832
0002c0 70 f4 b7 be 8d ba af be 46 18 e9 bd 98 a4 d2 3b
       -0.3592868 -0.34322014 -0.11381583 0.0064283125
0002d0 e4 8e 5e bd e2 70 29 bc 74 a6 ae be c0 08 44 be
       -0.05433549 -0.010341855 -0.3411137 -0.19143963
0002e0 6a f0 b7 3d e1 b9 a2 3e 64 ef 07 3e 1c af 51 3c
       0.08981402 0.3178244 0.13274914 0.012798097
0002f0 1d 91 c2 3e 09 f7 1c be 93 94 a3 3e b8 5c 88 3e
       0.38001338 -0.15328611 0.3194929 0.2663324
000300 c6 dc 69 3d 06 63 60 be 6e 02 81 be 2c d7 a7 3e
       0.05709531 -0.21912774 -0.25197166 0.3278135
000310 b4 bb 37 3e 7d 2f 46 3d 27 2f 6c 3e 2c 2a da 3e
       0.17942697 0.048385132 0.23064862 0.426103
000320 f3 58 99 3c 01 56 6d 3e e2 d6 80 3d d7 16 cc bd
       0.018719172 0.23177339 0.06290986 -0.09965294
000330 fb 33 5a bd 57 62 62 bd 82 ad 07 be 8c d0 a1 3e
       -0.05327223 -0.055269565 -0.13249782 0.3160442
000340 cc b5 49 be 67 89 e6 3d ce 9e 84 3c 04 73 2f 3e
       -0.19698256 0.11256676 0.016189005 0.17133719
000350 eb 41 1e 3d 58 00 79 3e ab 2a 71 3d 61 e3 3e be
       0.038637083 0.24316537 0.058878582 -0.18641426
000360 e5 ac 7f 3e 63 b5 58 3e c0 41 c3 bd e9 f9 96 3d
       0.24968298 0.21162944 -0.09534025 0.07371885
000370 77 61 b6 bc ac e8 b4 be 5a 7c a0 38 01 16 c0 be
       -0.022263272 -0.35333765 7.652557e-05 -0.37516788
000380 3a fd af bf 00 4a d7 3d 22 e2 22 bd 84 dd 32 bd
       -1.3749154 0.10512161 -0.03976644 -0.043668285
000390 95 ba 48 be fe 9b 7e be d7 c7 af 3e e5 e9 07 3e
       -0.19602425 -0.24864194 0.34332153 0.13272817
0003a0 c3 88 e1 bd 68 2e 10 be 64 84 ed bb c1 60 2b 3e
       -0.11012413 -0.14080203 -0.007248448 0.16736127
0003b0 94 db 06 be 11 15 b0 3e 9f 92 fe 3d fc 46 19 be
       -0.131697 0.34391072 0.124303095 -0.14968485
0003c0 3b 88 99 be 13 35 7c bd 13 f1 85 bd a3 78 59 be
       -0.29986748 -0.061574053 -0.06540122 -0.21237426
0003d0 06 ca 20 3e 3d 7d 91 3c 06 52 e4 bd 18 81 1a 3d
       0.15702066 0.017759914 -0.11148457 0.03772077
0003e0 4e 64 6b 3e c7 0f cb 3f 7e 0f a7 3e cf 88 90 3e
       0.22987482 1.586419 0.32629007 0.28229377
0003f0 80 d3 a0 be 8a 67 13 be b5 16 3a be 38 d6 58 be
       -0.31411362 -0.14394966 -0.18172725 -0.21175468

N.layers.0.bias f4 [32]
000000 b2 ee 28 3e 6d 08 bf 3e 12 e0 ab bd f5 e1 ca 3f
       0.16497305 0.37311116 -0.083923474 1.5850207
000010 b3 5a 4d bf fa 0a 37 3f cd e4 9a bf 81 47 19 3e
       -0.8021652 0.71501124 -1.2101074 0.14968683
000020 68 d4 ab bf df e3 c3 3f d4 48 39 3f 21 4a 35 3f
       -1.3424196 1.5303916 0.7237675 0.70816237
000030 1c ed 28 3f 5f a3 99 bf e9 a4 b9 3f 7f 29 c5 bf
       0.659868 -1.2002982 1.4503452 -1.5403289
000040 1e b6 82 3f f6 15 b7 3e c5 72 08 bf ac b3 44 3e
       1.0211828 0.35758942 -0.53300124 0.19209164
000050 34 e1 f6 bf 9c f1 95 3e 3f 41 e4 bf 2d f9 0e 3e
       -1.9287477 0.29285896 -1.7832412 0.1396224
000060 af cc ea bf 24 58 a9 3f 33 ac a8 be a8 4b b8 be
       -1.8343714 1.3230023 -0.32943878 -0.3599522
000070 a0 3b 01 40 f2 25 a7 bf e0 12 6f be f4 8f c7 3e
       2.0192642 -1.3058455 -0.23347044 0.38977015

N.layers.1.weight f4 [32, 32]
000000 5d e7 3d be 91 af a9 be 52 23 98 bd 56 76 b2 be
       -0.1854529 -0.3314176 -0.07428612 -0.34855908
000010 65 75 ff be 76 2a 60 be 42 9c c0 be d8 52 99 be
       -0.49894252 -0.21891198 -0.37619215 -0.29946017
000020 ad 1d 14 bf 13 43 00 bf 7d 57 8c be 57 d8 b3 be
       -0.5785778 -0.5010235 -0.27410498 -0.35125992
000030 57 d9 76 be f0 b9 f1 be 5c 79 04 bf 53 dc 2e bf
       -0.24106346 -0.47212172 -0.5174768 -0.6830494
000040 8d 0b 38 bf ff f3 bd be 6b a9 a4 be dc c9 c5 bd
       -0.71892625 -0.37100217 -0.32160506 -0.09657642
000050 6a 62 b3 be 8d 61 03 be 4f de 33 bf 73 be 04 be
       -0.3503602 -0.12830181 -0.7026109 -0.12963276
000060 c3 9a 07 bf b9 48 31 bf de 10 fe be bd ef a7 be
       -0.5297052 -0.6925159 -0.49622244 -0.32800093
000070 65 53 b4 be 26 f9 4d bf 15 11 7e be f1 b3 8d be
       -0.35219875 -0.80458295 -0.24811204 -0.27676347
000080 0f a3 fb 3d a1 7e cf 3e 7f 6d 33 3e 67 7a 0c 3f
       0.1228696 0.40526298 0.17522238 0.5487427
000090 f3 51 ff 3e 63 91 83 3e e3 85 a9 3e 96 f1 95 3e
       0.4986721 0.2569686 0.3310996 0.29285878
0000a0 e6 83 ec 3e 26 70 33 3f 9d e3 01 3f 6f f3 b7 3e
       0.4619438 0.70093 0.50737935 0.35927913
0000b0 86 36 a9 3e 94 ba 8d 3e 31 34 11 3f d0 c9 2e 3f
       0.3304941 0.2768141 0.5672026 0.6827669
0000c0 02 28 51 3f 6d 85 9d 3d 7c f7 59 3e f3 e9 4e 3e
       0.8170167 0.076914646 0.21285814 0.20206432
0000d0 64 32 f0 3e e0 f8 a7 3e 0f f8 2f 3f 1a aa 95 3e
       0.46913445 0.32807064 0.6873788 0.2923134
0000e0 c8 5b 1b 3f 99 60 2b 3f 99 cc b1 3e 4a d5 b3 3e
       0.6068692 0.6694427 0.34726408 0.35123664
0000f0 3b 74 9d 3e fd 31 3b 3f f6 41 47 3e 19 ae d2 3e
       0.3075274 0.7312315 0.19458756 0.4114845
000100 61 39 08 3e 2f db 3a 3e 42 af 99 3e ea 5e eb 3e
       0.13303138 0.18247674 0.30016524 0.4597085
000110 d9 79 9d 3e 6e 6e a8 3e 91 3c bb 3e b0 f9 80 3e
       0.30757025 0.3289675 0.36569646 0.25190496
000120 c0 b0 0a 3f b0 c4 1c 3f ee d3 ed 3e c5 4a f8 3d
       0.5417595 0.6123762 0.46450752 0.12123636
000130 f2 b4 28 3e e3 56 50 3e bd 9a 82 3e 79 15 eb 3e
       0.16475275 0.20345645 0.2550868 0.4591482
000140 d6 55 ca 3e 9a fe c9 3e 84 a0 8c 3e 82 24 21 3e
       0.39518613 0.39452058 0.27466214 0.15736583
000150 75 47 d2 3e 72 11 ad 3e ad b4 2d 3f a5 aa c0 bc
       0.41070142 0.33802372 0.67853814 -0.02351887
000160 61 bc e3 3e e8 bf 12 3f 65 5f d5 3e 3e 37 1b 3e
       0.4447966 0.57324076 0.41674343 0.15157792
000170 15 45 07 3f ff bd 13 3f 68 d8 92 3d 9e bb 2a 3e
       0.52839786 0.57711786 0.071701825 0.16673133
000180 1a 85 33 bd d7 a4 15 3e 3e db 5b 3e 12 72 df 3e
       -0.043828107 0.14613663 0.21470353 0.43641716
000190 8a 74 91 3e df c1 b9 3e aa 6e a0 3e c5 ad 00 3d
       0.28409225 0.36280724 0.3133443 0.03141572
0001a0 48 67 b9 3e 26 62 f3 3e 44 71 16 3f 7c 04 6d 3e
       0.3621161 0.4753582 0.5876658 0.23146242
0001b0 ca 13 8f 3e a1 b1 76 3e c3 68 13 3f ca fd dc 3e
       0.27944785 0.24091198 0.5758173 0.43162376
0001c0 ab da 2c 3f fd 20 d6 3e 41 69 cb 3e c2 14 2f 3e
       0.6752116 0.41822043 0.3972874 0.17097762
0001d0 67 e4 64 3e 65 a8 5a 3e e6 e1 3c 3e ba 5d 28 bd
       0.22352754 0.213533 0.18445548 -0.04110501
0001e0 a3 c5 8b 3e 7e c3 26 3f 62 b1 3e 3e dc 0a 95 3e
       0.27299222 0.6514205 0.18622354 0.29109848
0001f0 aa fc d8 3e 48 14 be 3e bf 2e 7f 3e 3a d1 8f 3d
       0.42380267 0.37124848 0.24920176 0.07022329
000200 9a 30 73 3e b1 a1 88 3e 51 90 b7 3d 12 a4 b4 3e
       0.23749009 0.2668586 0.08963073 0.35281426
000210 31 c6 e2 3e e4 68 64 3e a8 41 80 3e 5e e6 0f 3e
       0.44291833 0.22305638 0.25050092 0.14052722
000220 cf ab 35 3f bd 19 30 3f aa 12 9a 3e 64 aa a1 3e
       0.70965284 0.68789274 0.30092365 0.3157531
000230 21 f7 ca 3e 3a be 81 3e 88 f7 ad 3e 81 b8 08 3f
       0.3964167 0.25340444 0.33977914 0.5340653
000240 df e3 1d 3f 42 87 8c 3e 9a 94 b7 3e 5b e2 8a 3e
       0.6167583 0.27446944 0.35855561 0.2712582
000250 da ea 1b 3f 5a d5 b6 3c c5 98 2c 3f 9a 51 1a 3e
       0.6090523 0.02231853 0.6742061 0.15070191
000260 d8 7f 21 3f ba 41 e1 3e 40 fe d7 3e 7e 6c 90 3e
       0.630857 0.43995458 0.42186165 0.28207773
000270 c3 49 f9 3e 8d 53 2c 3f ff cb 2d 3e 50 7d 95 3d
       0.48689088 0.6731499 0.1697235 0.07299292
000280 f2 e1 3c bc b5 95 11 3e c5 9e 91 3e 13 6b ae 3e
       -0.011528479 0.14217265 0.28441444 0.34066066
000290 5d 9d e1 3e 47 97 1a 3e b7 09 d2 3e 54 8e 9d 3e
       0.4406537 0.1509677 0.41023037 0.3077265
0002a0 5d 82 85 3e 64 7a 9f 3e 71 03 b3 3e 25 fe 3d 3e
       0.26076022 0.31148064 0.34963563 0.1855398
0002b0 eb 9b 33 3e 37 81 08 3f 56 92 a3 3e 45 96 22 3f
       0.17539947 0.53322166 0.31947583 0.63510543
0002c0 b8 ca 13 3f 47 96 5d 3e 80 a5 9b 3e a1 f7 71 3e
       0.577312 0.21639358 0.30399704 0.23629619
0002d0 05 f1 f0 3e 37 12 ae 3d 6a 25 35 3e 6d 01 1d 3e
       0.47058883 0.08499568 0.17690054 0.15332575
0002e0 f8 51 05 3f fa 15 0b 3f 3f 24 74 3e c0 72 62 3e
       0.520782 0.5433041 0.23841952 0.22114086
0002f0 b0 2d 07 3f 70 b8 2e 3f 1b 0c cf 3e c1 ec 32 3e
       0.5280409 0.6825018 0.40438923 0.17473127
000300 86 cd 4e 3e e4 89 97 3d 34 7f ee 3c 8e ed fa 3e
       0.20195588 0.073993474 0.02911339 0.49009365
000310 03 58 32 3e 6f 5b e5 bd a4 ea ad 3e 23 42 84 bc
       0.17416386 -0.1119908 0.3396808 -0.016144818
000320 05 b4 02 3e 41 af 84 3d 8d d4 a5 3e a3 c2 99 3c
       0.12763985 0.064787395 0.32388726 0.018769568
000330 a9 3a 31 3e 97 28 49 3e 37 85 e0 3e 9b 40 35 3e
       0.17307533 0.1964439 0.43851635 0.17700426
000340 4e 1d ad 3e c8 86 3c 3e e8 06 16 3e 3a 3d 15 3a
       0.3381142 0.1841079 0.14651072 0.00056930224
000350 cb 88 ba 3e 24 e1 ff 3d a4 87 ce bc f1 3c 33 3e
       0.3643249 0.12494114 -0.025211163 0.17503716
000360 59 0d cd 3e 81 dc ce 3d 42 27 fb 3d 72 3f c4 3c
       0.40049246 0.101006515 0.12263347 0.023956034
000370 95 1a aa 3d e6 9b e7 3e e7 21 a8 3e 50 ee 70 3e
       0.08305851 0.4523613 0.32838365 0.23528409
000380 11 b9 b6 be 5e ef f4 be 34 85 36 be 70 70 de be
       -0.3568807 -0.47838873 -0.1782425 -0.43445158
000390 f9 5d cb be e9 4e 52 be 55 e7 cc be b8 66 ca bd
       -0.39720133 -0.20537914 -0.40020242 -0.09882873
0003a0 0c 75 25 bf 53 84 06 bf 8a 55 db be 8b 22 b6 be
       -0.64631724 -0.5254566 -0.428387 -0.3557323
0003b0 70 a4 7b be e3 4f 0d bf b5 6a 98 be c7 b7 4b bf
       -0.24574447 -0.5520002 -0.2976891 -0.79577297
0003c0 61 27 46 bf 39 a8 59 be 79 4f bf be a4 03 b2 be
       -0.7740384 -0.21255578 -0.3736532 -0.34768403
0003d0 ff b4 cf be 42 60 67 be ef e4 06 bf 14 f0 23 be
       -0.40567777 -0.22595313 -0.52693075 -0.16009551
0003e0 6e 78 df be a2 eb 37 bf e7 66 ea be c5 4b 66 be
       -0.43646568 -0.7184392 -0.45781633 -0.22489841
0003f0 85 3b 0e bf 89 c9 2b bf ba 35 93 be b5 ba 63 be
       -0.5555957 -0.67104393 -0.28751928 -0.22239192

N.layers.1.bias f4 [32]
000000 dd 32 8d 40 ee 11 6a bf af 2c 38 bf f8 33 90 be
       4.412459 -0.9143361 -0.7194318 -0.2816465
000010 8e 62 db be 1b ee 7a be 37 79 0e bd c3 56 b3 3e
       -0.4284863 -0.24504893 -0.03478357 0.3502713
000020 39 c8 eb bd d1 93 34 3e 2b 5b f4 3e db 13 7d 3f
       -0.11512799 0.17634512 0.47725806 0.9885842
000030 4a b7 80 be 85 3e d8 3e 82 7f 78 3e b6 7f d0 bd
       -0.25139838 0.422352 0.2426739 -0.10180609
000040 5c 80 86 3d 54 2a 44 c0 1b 70 ac be ae 76 a2 bf
       0.06567451 -3.0650835 -0.3367928 -1.2692468
000050 f0 10 2a 3f 76 6a a6 3e 3f 57 27 be e2 63 ce 3d
       0.66432095 0.32503098 -0.16341875 0.10077645
000060 ee 35 74 bd d3 c6 cd 3f 60 fd a7 bf 4a a3 12 bf
       -0.059621744 1.6076301 -1.3124199 -0.5728041
000070 d3 a8 32 3f 10 44 90 3e 0f 97 5b 3e 75 cd 08 3f
       0.69788855 0.28176928 0.21444343 0.534385
