experiments/oc/pretrained/swap2_nn_checkpt.pth (torch, 5119 bytes, 7 tensors)

A f4 [5, 5]
0	0x3e6ba33d	0.23011489
1	0x3f387aa6	0.72062147
2	0x3ecf254c	0.40458143
3	0x3c4ad9b0	0.012381002
4	0x3f120bed	0.5704945
5	0xbeb48032	-0.35254055
6	0xbeccb86b	-0.3998445
7	0xbea775de	-0.32707113
8	0xbe864cd9	-0.26230505
9	0x3ee3ebdf	0.44515893
10	0x3de8b8c5	0.11363367
11	0x3e06e5cd	0.131736
12	0xbe6c9001	-0.23101808
13	0xbe742651	-0.23842742
14	0xbf0664de	-0.5249766
15	0x3d468766	0.04846897
16	0x3f606908	0.87660265
17	0xbd5c1764	-0.053733245
18	0x3d02bafe	0.03191661
19	0xbf195220	-0.5989094
20	0x3df2f1e4	0.11862543
21	0x3e1a57a0	0.15072489
22	0x3e569258	0.20954263
23	0x3e90172d	0.28142682
24	0x3db2f3e3	0.08737924

c.weight f4 [1, 5]
0	0xbf6de944	-0.9293406
1	0x3e10fa8b	0.14158075
2	0x3f763af4	0.96183705
3	0xbe99a09d	-0.3000535
4	0xc0f93522	-7.787736

w.weight f4 [1, 16]
0	0x4001d43c	2.0285788
1	0x3fd02f04	1.6264348
2	0x3ff26d97	1.8939694
3	0x3fa5451c	1.2911716
4	0x4001919d	2.0245125
5	0x3ff0e408	1.881959
6	0x400a34dd	2.1594765
7	0x400a01f2	2.1563687
8	0x40006af9	2.006529
9	0x4002b99d	2.042579
10	0x3fe249e6	1.7678802
11	0x3fb7c935	1.4358279
12	0x3fe995ba	1.8248818
13	0x3fa26096	1.2685726
14	0x3fc474c3	1.5348133
15	0x400adc33	2.16969

N.layers.0.weight f4 [16, 5]
0	0x3ef8c0f9	0.48584726
1	0xbe0b318d	-0.13593121
2	0x3e370ccd	0.17875977
3	0xbe5a3a34	-0.21311265
4	0xbfe2b5b5	-1.7711703
5	0xbda35556	-0.07975261
6	0xbee7ca32	-0.4527145
7	0xbe262ce1	-0.16228057
8	0x3f1bc9ab	0.60854596
9	0xbe60d503	-0.21956258
10	0xbdc8e449	-0.09809167
11	0x3f3ff8ff	0.7498931
12	0xbea7c1ec	-0.32765138
13	0xbc28f892	-0.01031317
14	0x3f1d6628	0.61484003
15	0xbee1d34c	-0.4410652
16	0x3c8eee39	0.017447578
17	0x3eca311d	0.39490595
18	0x3e6fba35	0.23410876
19	0x3eada17c	0.33912265
20	0x3e1c306e	0.1525285
21	0x3e289631	0.16463543
22	0xbda580ed	-0.08081231
23	0x3f6904e0	0.91023064
24	0xbf7aa892	-0.9791347
25	0xbdd090f3	-0.10183897
26	0x3f622563	0.883383
27	0xbe4c80dc	-0.19971031
28	0xbe022e88	-0.12713063
29	0xbfa48611	-1.2853414
30	0xbe8ec4c0	-0.27884483
31	0xbde7f37e	-0.11325739
32	0xbeed8c58	-0.46396136
33	0x3ed48a3f	0.41511723
34	0xbfa84c0a	-1.3148205
35	0xbee79665	-0.4523193
36	0xbeafb0e2	-0.34314638
37	0xbe3f7acc	-0.18699187
38	0xbe200a67	-0.15628968
39	0x3fa59b8c	1.2938094
40	0xbe0a9b9f	-0.13535927
41	0xbda1bcae	-0.07897316
42	0xbeb4a76a	-0.35283977
43	0xbd8d0c2f	-0.068870895
44	0xbf9524f2	-1.16519
45	0xbeaf52fb	-0.34242997
46	0xbe38b35b	-0.18037169
47	0xbdca8d58	-0.098902404
48	0x3e4c0c67	0.19926606
49	0x3fbaebfb	1.4603266
50	0xbeb528ee	-0.3538279
51	0xbef4d377	-0.47817585
52	0xbe2b0c32	-0.16703871
53	0xbc23565b	-0.009969319
54	0x3f765ce8	0.96235514
55	0x3e8c684e	0.27423328
56	0xbe0a425a	-0.13501874
57	0x3e848235	0.2588059
58	0xbe86dfb2	-0.2634254
59	0xbe9770af	-0.29578158
60	0x3de3c2ef	0.11121165
61	0xbe1c30a4	-0.1525293
62	0xbde78f24	-0.11306599
63	0xbf0c691c	-0.54847884
64	0xbfc12e2b	-1.5092214
65	0x3e89a0b7	0.26880428
66	0x3ea9c513	0.33158168
67	0xbed61ae9	-0.41817406
68	0xbe42c7c0	-0.19021511
69	0xbd48ccd8	-0.04902348
70	0xbdeb6aa7	-0.11494952
71	0xbf35f199	-0.71071774
72	0x3bb05b24	0.0053819586
73	0x3cdfc81a	0.027317096
74	0x3f503486	0.81330144
75	0xbcd13f90	-0.025543004
76	0xbf5e9e89	-0.86960655
77	0xbe8b4fdf	-0.27209374
78	0xbedd3f0e	-0.4321217
79	0xbf89ec2b	-1.0775198

N.layers.0.bias f4 [16]
0	0xbfad485f	-1.3537711
1	0xbf496490	-0.7866907
2	0x3f6a6854	0.9156544
3	0x3edf6982	0.43635184
4	0xbfc2207d	-1.5166165
5	0xbe6b7898	-0.22995222
6	0xbf71a96c	-0.9439914
7	0x3fc463c1	1.5342942
8	0xbfc0b291	-1.5054494
9	0x3f98254a	1.188638
10	0x3f826181	1.0186006
11	0xbf05d50d	-0.52278215
12	0xbf9007c0	-1.1252365
13	0xbe925a2c	-0.2858442
14	0x3f3f6317	0.74760574
15	0xbfbf1e8d	-1.4931198

N.layers.1.weight f4 [16, 16]
0	0x3f89a783	1.0754246
1	0x3eaf19a9	0.34199265
2	0x3ec4f5e5	0.38468853
3	0xbea93e49	-0.33055332
4	0x3f5cb911	0.8621989
5	0x3ea5c06d	0.32373372
6	0x3efd7413	0.4950262
7	0x3f17871d	0.5919054
8	0x3f6d1c0a	0.9262091
9	0x3f2e51a4	0.68093324
10	0x3d9c4b91	0.07631601
11	0x3cd2fa74	0.025754191
12	0x3f13c281	0.57718664
13	0xbf03fcf5	-0.51557857
14	0x3ea6dc5c	0.32589996
15	0x3f58790b	0.84559697
16	0xbf689e1d	-0.9086626
17	0xbe6fb458	-0.2340864
18	0xbd9cb4fa	-0.07651706
19	0x3e6b8c76	0.230028
20	0xbf5b9322	-0.8577138
21	0xbdabebbc	-0.08394572
22	0xbf54338f	-0.8289117
23	0xbf251b50	-0.644948
24	0xbf69f896	-0.9139494
25	0xbf642453	-0.89117926
26	0xbea8c6b0	-0.32964087
27	0x3e48de16	0.19615969
28	0xbedba061	-0.42895797
29	0x3ee1de6e	0.44115013
30	0xbe472b11	-0.19450022
31	0xbf05c73e	-0.52257144
32	0xbf755cd4	-0.9584477
33	0xbe443cb6	-0.19163784
34	0xbeb1e950	-0.34748316
35	0x3ea373ff	0.31924435
36	0xbf8ab8a2	-1.0837595
37	0xbedf38e6	-0.43598098
38	0xbf2e5832	-0.68103325
39	0xbf3e9fe1	-0.74462706
40	0xbf8873c5	-1.066033
41	0xbf326baa	-0.6969553
42	0xbe00e52a	-0.12587419
43	0xbdbb11e5	-0.091342725
44	0xbf32c8ef	-0.6983785
45	0x3f18303a	0.5944859
46	0xbe078830	-0.13235545
47	0xbf52fda7	-0.8241829
48	0x3f7f0bf1	0.99627596
49	0x3ebb938d	0.3663601
50	0x3ea94e14	0.3306738
51	0xbeef9b64	-0.4679824
52	0x3f9faea1	1.2475168
53	0x3ec215f0	0.37907362
54	0x3f2538f4	0.6454003
55	0x3f1f1c96	0.62152994
56	0x3f6eef90	0.93334293
57	0x3f759add	0.9593943
58	0x3e89c335	0.26906744
59	0x3e05c8aa	0.13064829
60	0x3efb4618	0.49076915
61	0xbee5a455	-0.44851938
62	0x3d309e90	0.043119967
63	0x3f7e053c	0.9922674
64	0x3f3ebef6	0.74510133
65	0x3e0c809b	0.13720934
66	0x3ed3cdbf	0.4136791
67	0xbed24324	-0.4106685
68	0x3f411cf7	0.7543482
69	0x3e641bd4	0.2227624
70	0x3f0eb8e1	0.5575085
71	0x3f2fe660	0.687109
72	0x3f4b7631	0.7947722
73	0x3f5824d4	0.84431195
74	0x3e772da6	0.24138507
75	0xbe8bf919	-0.27338484
76	0x3f6d9296	0.928018
77	0xbedbdc9d	-0.42941752
78	0x3ec03775	0.3754231
79	0x3f7a49e4	0.97769
80	0xbf3977f9	-0.7244869
81	0xbf112833	-0.56701964
82	0xbde4bf43	-0.11169293
83	0x3e8e67f4	0.27813685
84	0xbf225464	-0.6341002
85	0xbec04673	-0.37553748
86	0xbf69f7f8	-0.91393995
87	0xbf554a45	-0.8331645
88	0xbf411ed7	-0.7543768
89	0xbf3640c6	-0.71192586
90	0xbf19762f	-0.5994596
91	0x3de52af7	0.111898355
92	0xbf48dbdc	-0.7846048
93	0x3f1b2362	0.60600865
94	0xbe31c000	-0.17358398
95	0xbf5ed936	-0.8705019
96	0xbfa025eb	-1.2511572
97	0xbe52def2	-0.2059286
98	0xbe037e6a	-0.12841192
99	0x3f34d3b9	0.70635563
100	0xbf61a3fd	-0.8814085
101	0xbe9b8154	-0.30372107
102	0xbf5caf98	-0.86205435
103	0xbf894080	-1.0722809
104	0xbf6b030f	-0.9180154
105	0xbf6d8729	-0.92784363
106	0xbe726651	-0.23671843
107	0xbda00382	-0.07813169
108	0xbf897a07	-1.0740365
109	0x3e924676	0.28569382
110	0xbef7414c	-0.48292005
111	0xbf92d85d	-1.1472279
112	0xbfa5eb5d	-1.2962452
113	0xbe60a208	-0.2193681
114	0xbecbc46e	-0.397983
115	0x3f30a44b	0.6900069
116	0xbfa7be3f	-1.3104934
117	0xbf397d4f	-0.7245683
118	0xbf9bdd5a	-1.2176926
119	0xbf9275f9	-1.1442252
120	0xbf950926	-1.1643417
121	0xbf97026e	-1.1797616
122	0xbedbfa95	-0.42964616
123	0x3e95c098	0.292485
124	0xbf978055	-1.1836039
125	0x3f2ed033	0.68286437
126	0xbefc4365	-0.49270168
127	0xbf86308b	-1.0483564
128	0x3f8f2d51	1.1185704
129	0x3ea2cb30	0.31795645
130	0xbc9d3255	-0.01918904
131	0xbec62f1b	-0.38707814
132	0x3f9ea583	1.239426
133	0x3f0d2b76	0.5514444
134	0x3f52bb10	0.82316685
135	0x3f50bdb4	0.81539464
136	0x3f903d02	1.1268618
137	0x3f64b790	0.89342594
138	0x3ee78702	0.4522019
139	0xbe474a2b	-0.19461887
140	0x3f75ae10	0.95968723
141	0xbef5471a	-0.4790581
142	0x3dc09eb0	0.09405267
143	0x3f73e827	0.9527611
144	0x3f996988	1.198533
145	0x3e58eb84	0.21183592
146	0x3f179b87	0.5922169
147	0xbf30ee21	-0.69113356
148	0x3f892bea	1.0716527
149	0x3f04f55c	0.5193689
150	0x3f6e8b9f	0.93181795
151	0x3f646768	0.89220285
152	0x3f7bdd8a	0.98384917
153	0x3f73e546	0.9527172
154	0x3f203635	0.62582713
155	0xbe8de459	-0.27713278
156	0x3f845303	1.0337833
157	0xbf204f07	-0.62620586
158	0x3f1f788f	0.6229333
159	0x3f623c8e	0.8837365
160	0xbf97435c	-1.1817431
161	0xbe831049	-0.25598362
162	0xbef824b0	-0.4846549
163	0x3eab80a3	0.3349658
164	0xbf93300a	-1.1499035
165	0xbeffe8d9	-0.49982336
166	0xbf31f10b	-0.6950843
167	0xbf3f05b7	-0.74618095
168	0xbf810527	-1.0079697
169	0xbf38a66f	-0.7212896
170	0xbef8dfd7	-0.48608276
171	0x3e6956fe	0.22787091
172	0xbf750180	-0.95705414
173	0x3f4b9cb6	0.79535997
174	0xbe279a54	-0.16367465
175	0xbf3fbaaa	-0.748942
176	0xbf18dcbb	-0.5971181
177	0x3c7dff0c	0.015502702
178	0xbe0429bd	-0.12906547
179	0x3e90a09d	0.28247538
180	0xbf4957f0	-0.78649807
181	0xbeb08fb3	-0.34484634
182	0xbf071749	-0.52769905
183	0xbf37576b	-0.71617764
184	0xbf173a48	-0.59073305
185	0xbf1831e8	-0.5945115
186	0xbd7f6166	-0.062348746
187	0xbe2be9ad	-0.16788359
188	0xbf208b3b	-0.6271245
189	0x3e9ec1fd	0.31007376
190	0xbec2a0e5	-0.38013378
191	0xbf0f6a1f	-0.560213
192	0x3f76892b	0.9630305
193	0x3e15c9eb	0.14627807
194	0x3e22b1df	0.15888165
195	0xbe88a066	-0.26684874
196	0x3f9d6110	1.2295246
197	0x3f1cb299	0.6121002
198	0x3f06209b	0.523935
199	0x3f484f25	0.78245765
200	0x3f4e60bd	0.8061636
201	0x3f23aa75	0.6393197
202	0x3ebadb5f	0.36495492
203	0x3de9bf7a	0.114134744
204	0x3f11f2b1	0.5701094
205	0xbf0f0b3d	-0.55876523
206	0x3d93ccf4	0.07216826
207	0x3f71e7b3	0.9449417
208	0xbf628a59	-0.8849235
209	0xbdc641d8	-0.096805274
210	0xbe8b6c6e	-0.27231163
211	0x3ee76401	0.45193484
212	0xbf91f097	-1.1401547
213	0xbe72a3df	-0.23695324
214	0xbf500891	-0.8126307
215	0xbf7c7e72	-0.9863044
216	0xbf12faa5	-0.57413703
217	0xbf0a3178	-0.53981733
218	0xbe06ece5	-0.13176306
219	0xbe1ce809	-0.1532289
220	0xbf393d61	-0.7235928
221	0x3eb56051	0.35425046
222	0x3c0c3cf6	0.008559456
223	0xbf6f029e	-0.9336337
224	0x3f5638e2	0.83680546
225	0xbe1ee9b2	-0.15518835
226	0x3e97b506	0.29630297
227	0xbe687213	-0.22699766
228	0x3f4bbb0d	0.7958229
229	0x3f05bfc2	0.52245724
230	0x3e994cd2	0.29941422
231	0x3eee33ef	0.46523997
232	0x3f710e64	0.94162583
233	0x3f0b8fa3	0.5451605
234	0x3d56b7da	0.05242143
235	0x3d7d2e1c	0.06181155
236	0x3f36cd9f	0.714075
237	0xbeee0a31	-0.4649215
238	0x3ec3095f	0.38093087
239	0x3f684260	0.9072628
240	0x3fa45b5f	1.2840384
241	0x3ea2bddc	0.31785476
242	0x3e078e38	0.13237846
243	0xbf29264c	-0.6607406
244	0x3f9860e2	1.1904566
245	0x3f1430d8	0.5788703
246	0x3f7ccd24	0.9875052
247	0x3f921fa4	1.1415906
248	0x3f8f7336	1.1207035
249	0x3f8f12b0	1.1177578
250	0x3ee31cf8	0.4435804
251	0xbdcf3db1	-0.101191886
252	0x3f43f339	0.76543003
253	0xbefcc60c	-0.49369848
254	0x3e8d1519	0.2755516
255	0x3f972a37	1.1809758

N.layers.1.bias f4 [16]
0	0xbecc713e	-0.39930147
1	0x3e8c76d8	0.2743442
2	0x3eba2080	0.3635292
3	0xbedaa4af	-0.4270377
4	0xbea1d81f	-0.316102
5	0xbde22042	-0.11041309
6	0x3af24282	0.0018482956
7	0xbd670cff	-0.05640888
8	0xbece4ea4	-0.40294373
9	0x3e2da7c9	0.16958536
10	0xbd2a1704	-0.041525856
11	0x3e2870d5	0.16449292
12	0xbe8225dc	-0.2541951
13	0x3e7fcd67	0.24980699
14	0xbeb81d30	-0.35959768
15	0x3e71520a	0.23566452
